…
Generating train split: 0 examples [00:00, ? examples/s]                                                        Dataset json downloaded and prepared to /root/.cache/huggingface/datasets/json/default-54f4f3b94b022caf/0.0.0/0f7e3662623656454fcd2b650f34e886a7db4b9104504885bd462096cc7a9f51. Subsequent calls will reuse this data.
Map:   0%|          | 0/373 [00:00<?, ? examples/s]                                                     0%|          | 0/373 [00:00<?, ?it/s] 58%|█████▊    | 218/373 [00:00<00:00, 2172.59it/s]100%|██████████| 373/373 [00:00<00:00, 2179.04it/s]
Building trainer...
FSDP: Wrapped Model:
ComposerMosaicGPT(
  (model): MosaicFullyShardedDataParallel(
    (_fsdp_wrapped_module): FlattenParamsWrapper(
      (_fpw_module): MosaicGPT(
        (transformer): ModuleDict(
          (wte): Embedding(50272, 2048)
          (wpe): Embedding(2048, 2048)
          (emb_drop): Dropout(p=0, inplace=False)
          (blocks): ModuleList(
            (0): FullyShardedDataParallel(
              (_fsdp_wrapped_module): FlattenParamsWrapper(
                (_fpw_module): CheckpointWrapper(
                  (_checkpoint_wrapped_module): GPTBlock(
                    (ln_1): LayerNorm((2048,), eps=1e-05, elementwise_affine=True)
                    (causal_attn): FlashCausalAttention(
                      (W_qkv): Linear(in_features=2048, out_features=6144, bias=True)
                      (causal_attn): FlashAttention()
                      (out_proj): Linear(in_features=2048, out_features=2048, bias=True)
                      (q_ln): LayerNorm((2048,), eps=1e-05, elementwise_affine=True)
                      (k_ln): LayerNorm((2048,), eps=1e-05, elementwise_affine=True)
                    )
                    (ln_2): LayerNorm((2048,), eps=1e-05, elementwise_affine=True)
                    (mlp): GPTMLP(
                      (mlp_up): Linear(in_features=2048, out_features=8192, bias=True)
                      (mlp_act): GELU(approximate='none')
                      (mlp_down): Linear(in_features=8192, out_features=2048, bias=True)
                    )
                    (resid_attn_dropout): Dropout(p=0, inplace=False)
                    (resid_mlp_dropout): Dropout(p=0, inplace=False)
                  )
                )
              )
            )
            (1): FullyShardedDataParallel(
              (_fsdp_wrapped_module): FlattenParamsWrapper(
                (_fpw_module): CheckpointWrapper(
                  (_checkpoint_wrapped_module): GPTBlock(
                    (ln_1): LayerNorm((2048,), eps=1e-05, elementwise_affine=True)
                    (causal_attn): FlashCausalAttention(
                      (W_qkv): Linear(in_features=2048, out_features=6144, bias=True)
                      (causal_attn): FlashAttention()
                      (out_proj): Linear(in_features=2048, out_features=2048, bias=True)
                      (q_ln): LayerNorm((2048,), eps=1e-05, elementwise_affine=True)
                      (k_ln): LayerNorm((2048,), eps=1e-05, elementwise_affine=True)
                    )
                    (ln_2): LayerNorm((2048,), eps=1e-05, elementwise_affine=True)
                    (mlp): GPTMLP(
                      (mlp_up): Linear(in_features=2048, out_features=8192, bias=True)
                      (mlp_act): GELU(approximate='none')
                      (mlp_down): Linear(in_features=8192, out_features=2048, bias=True)
                    )
                    (resid_attn_dropout): Dropout(p=0, inplace=False)
                    (resid_mlp_dropout): Dropout(p=0, inplace=False)
                  )
                )
              )
            )
            (2): FullyShardedDataParallel(
              (_fsdp_wrapped_module): FlattenParamsWrapper(
                (_fpw_module): CheckpointWrapper(
                  (_checkpoint_wrapped_module): GPTBlock(
                    (ln_1): LayerNorm((2048,), eps=1e-05, elementwise_affine=True)
                    (causal_attn): FlashCausalAttention(
                      (W_qkv): Linear(in_features=2048, out_features=6144, bias=True)
                      (causal_attn): FlashAttention()
                      (out_proj): Linear(in_features=2048, out_features=2048, bias=True)
                      (q_ln): LayerNorm((2048,), eps=1e-05, elementwise_affine=True)
                      (k_ln): LayerNorm((2048,), eps=1e-05, elementwise_affine=True)
                    )
                    (ln_2): LayerNorm((2048,), eps=1e-05, elementwise_affine=True)
                    (mlp): GPTMLP(
                      (mlp_up): Linear(in_features=2048, out_features=8192, bias=True)
                      (mlp_act): GELU(approximate='none')
                      (mlp_down): Linear(in_features=8192, out_features=2048, bias=True)
                    )
                    (resid_attn_dropout): Dropout(p=0, inplace=False)
                    (resid_mlp_dropout): Dropout(p=0, inplace=False)
                  )
                )
              )
            )
            (3): FullyShardedDataParallel(
              (_fsdp_wrapped_module): FlattenParamsWrapper(
                (_fpw_module): CheckpointWrapper(
                  (_checkpoint_wrapped_module): GPTBlock(
                    (ln_1): LayerNorm((2048,), eps=1e-05, elementwise_affine=True)
                    (causal_attn): FlashCausalAttention(
                      (W_qkv): Linear(in_features=2048, out_features=6144, bias=True)
                      (causal_attn): FlashAttention()
                      (out_proj): Linear(in_features=2048, out_features=2048, bias=True)
                      (q_ln): LayerNorm((2048,), eps=1e-05, elementwise_affine=True)
                      (k_ln): LayerNorm((2048,), eps=1e-05, elementwise_affine=True)
                    )
                    (ln_2): LayerNorm((2048,), eps=1e-05, elementwise_affine=True)
                    (mlp): GPTMLP(
                      (mlp_up): Linear(in_features=2048, out_features=8192, bias=True)
                      (mlp_act): GELU(approximate='none')
                      (mlp_down): Linear(in_features=8192, out_features=2048, bias=True)
                    )
                    (resid_attn_dropout): Dropout(p=0, inplace=False)
                    (resid_mlp_dropout): Dropout(p=0, inplace=False)
                  )
                )
              )
            )
            (4): FullyShardedDataParallel(
              (_fsdp_wrapped_module): FlattenParamsWrapper(
                (_fpw_module): CheckpointWrapper(
                  (_checkpoint_wrapped_module): GPTBlock(
                    (ln_1): LayerNorm((2048,), eps=1e-05, elementwise_affine=True)
                    (causal_attn): FlashCausalAttention(
                      (W_qkv): Linear(in_features=2048, out_features=6144, bias=True)
                      (causal_attn): FlashAttention()
                      (out_proj): Linear(in_features=2048, out_features=2048, bias=True)
                      (q_ln): LayerNorm((2048,), eps=1e-05, elementwise_affine=True)
                      (k_ln): LayerNorm((2048,), eps=1e-05, elementwise_affine=True)
                    )
                    (ln_2): LayerNorm((2048,), eps=1e-05, elementwise_affine=True)
                    (mlp): GPTMLP(
                      (mlp_up): Linear(in_features=2048, out_features=8192, bias=True)
                      (mlp_act): GELU(approximate='none')
                      (mlp_down): Linear(in_features=8192, out_features=2048, bias=True)
                    )
                    (resid_attn_dropout): Dropout(p=0, inplace=False)
                    (resid_mlp_dropout): Dropout(p=0, inplace=False)
                  )
                )
              )
            )
            (5): FullyShardedDataParallel(
              (_fsdp_wrapped_module): FlattenParamsWrapper(
                (_fpw_module): CheckpointWrapper(
                  (_checkpoint_wrapped_module): GPTBlock(
                    (ln_1): LayerNorm((2048,), eps=1e-05, elementwise_affine=True)
                    (causal_attn): FlashCausalAttention(
                      (W_qkv): Linear(in_features=2048, out_features=6144, bias=True)
                      (causal_attn): FlashAttention()
                      (out_proj): Linear(in_features=2048, out_features=2048, bias=True)
                      (q_ln): LayerNorm((2048,), eps=1e-05, elementwise_affine=True)
                      (k_ln): LayerNorm((2048,), eps=1e-05, elementwise_affine=True)
                    )
                    (ln_2): LayerNorm((2048,), eps=1e-05, elementwise_affine=True)
                    (mlp): GPTMLP(
                      (mlp_up): Linear(in_features=2048, out_features=8192, bias=True)
                      (mlp_act): GELU(approximate='none')
                      (mlp_down): Linear(in_features=8192, out_features=2048, bias=True)
                    )
                    (resid_attn_dropout): Dropout(p=0, inplace=False)
                    (resid_mlp_dropout): Dropout(p=0, inplace=False)
                  )
                )
              )
            )
            (6): FullyShardedDataParallel(
              (_fsdp_wrapped_module): FlattenParamsWrapper(
                (_fpw_module): CheckpointWrapper(
                  (_checkpoint_wrapped_module): GPTBlock(
                    (ln_1): LayerNorm((2048,), eps=1e-05, elementwise_affine=True)
                    (causal_attn): FlashCausalAttention(
                      (W_qkv): Linear(in_features=2048, out_features=6144, bias=True)
                      (causal_attn): FlashAttention()
                      (out_proj): Linear(in_features=2048, out_features=2048, bias=True)
                      (q_ln): LayerNorm((2048,), eps=1e-05, elementwise_affine=True)
                      (k_ln): LayerNorm((2048,), eps=1e-05, elementwise_affine=True)
                    )
                    (ln_2): LayerNorm((2048,), eps=1e-05, elementwise_affine=True)
                    (mlp): GPTMLP(
                      (mlp_up): Linear(in_features=2048, out_features=8192, bias=True)
                      (mlp_act): GELU(approximate='none')
                      (mlp_down): Linear(in_features=8192, out_features=2048, bias=True)
                    )
                    (resid_attn_dropout): Dropout(p=0, inplace=False)
                    (resid_mlp_dropout): Dropout(p=0, inplace=False)
                  )
                )
              )
            )
            (7): FullyShardedDataParallel(
              (_fsdp_wrapped_module): FlattenParamsWrapper(
                (_fpw_module): CheckpointWrapper(
                  (_checkpoint_wrapped_module): GPTBlock(
                    (ln_1): LayerNorm((2048,), eps=1e-05, elementwise_affine=True)
                    (causal_attn): FlashCausalAttention(
                      (W_qkv): Linear(in_features=2048, out_features=6144, bias=True)
                      (causal_attn): FlashAttention()
                      (out_proj): Linear(in_features=2048, out_features=2048, bias=True)
                      (q_ln): LayerNorm((2048,), eps=1e-05, elementwise_affine=True)
                      (k_ln): LayerNorm((2048,), eps=1e-05, elementwise_affine=True)
                    )
                    (ln_2): LayerNorm((2048,), eps=1e-05, elementwise_affine=True)
                    (mlp): GPTMLP(
                      (mlp_up): Linear(in_features=2048, out_features=8192, bias=True)
                      (mlp_act): GELU(approximate='none')
                      (mlp_down): Linear(in_features=8192, out_features=2048, bias=True)
                    )
                    (resid_attn_dropout): Dropout(p=0, inplace=False)
                    (resid_mlp_dropout): Dropout(p=0, inplace=False)
                  )
                )
              )
            )
            (8): FullyShardedDataParallel(
              (_fsdp_wrapped_module): FlattenParamsWrapper(
                (_fpw_module): CheckpointWrapper(
                  (_checkpoint_wrapped_module): GPTBlock(
                    (ln_1): LayerNorm((2048,), eps=1e-05, elementwise_affine=True)
                    (causal_attn): FlashCausalAttention(
                      (W_qkv): Linear(in_features=2048, out_features=6144, bias=True)
                      (causal_attn): FlashAttention()
                      (out_proj): Linear(in_features=2048, out_features=2048, bias=True)
                      (q_ln): LayerNorm((2048,), eps=1e-05, elementwise_affine=True)
                      (k_ln): LayerNorm((2048,), eps=1e-05, elementwise_affine=True)
                    )
                    (ln_2): LayerNorm((2048,), eps=1e-05, elementwise_affine=True)
                    (mlp): GPTMLP(
                      (mlp_up): Linear(in_features=2048, out_features=8192, bias=True)
                      (mlp_act): GELU(approximate='none')
                      (mlp_down): Linear(in_features=8192, out_features=2048, bias=True)
                    )
                    (resid_attn_dropout): Dropout(p=0, inplace=False)
                    (resid_mlp_dropout): Dropout(p=0, inplace=False)
                  )
                )
              )
            )
            (9): FullyShardedDataParallel(
              (_fsdp_wrapped_module): FlattenParamsWrapper(
                (_fpw_module): CheckpointWrapper(
                  (_checkpoint_wrapped_module): GPTBlock(
                    (ln_1): LayerNorm((2048,), eps=1e-05, elementwise_affine=True)
                    (causal_attn): FlashCausalAttention(
                      (W_qkv): Linear(in_features=2048, out_features=6144, bias=True)
                      (causal_attn): FlashAttention()
                      (out_proj): Linear(in_features=2048, out_features=2048, bias=True)
                      (q_ln): LayerNorm((2048,), eps=1e-05, elementwise_affine=True)
                      (k_ln): LayerNorm((2048,), eps=1e-05, elementwise_affine=True)
                    )
                    (ln_2): LayerNorm((2048,), eps=1e-05, elementwise_affine=True)
                    (mlp): GPTMLP(
                      (mlp_up): Linear(in_features=2048, out_features=8192, bias=True)
                      (mlp_act): GELU(approximate='none')
                      (mlp_down): Linear(in_features=8192, out_features=2048, bias=True)
                    )
                    (resid_attn_dropout): Dropout(p=0, inplace=False)
                    (resid_mlp_dropout): Dropout(p=0, inplace=False)
                  )
                )
              )
            )
            (10): FullyShardedDataParallel(
              (_fsdp_wrapped_module): FlattenParamsWrapper(
                (_fpw_module): CheckpointWrapper(
                  (_checkpoint_wrapped_module): GPTBlock(
                    (ln_1): LayerNorm((2048,), eps=1e-05, elementwise_affine=True)
                    (causal_attn): FlashCausalAttention(
                      (W_qkv): Linear(in_features=2048, out_features=6144, bias=True)
                      (causal_attn): FlashAttention()
                      (out_proj): Linear(in_features=2048, out_features=2048, bias=True)
                      (q_ln): LayerNorm((2048,), eps=1e-05, elementwise_affine=True)
                      (k_ln): LayerNorm((2048,), eps=1e-05, elementwise_affine=True)
                    )
                    (ln_2): LayerNorm((2048,), eps=1e-05, elementwise_affine=True)
                    (mlp): GPTMLP(
                      (mlp_up): Linear(in_features=2048, out_features=8192, bias=True)
                      (mlp_act): GELU(approximate='none')
                      (mlp_down): Linear(in_features=8192, out_features=2048, bias=True)
                    )
                    (resid_attn_dropout): Dropout(p=0, inplace=False)
                    (resid_mlp_dropout): Dropout(p=0, inplace=False)
                  )
                )
              )
            )
            (11): FullyShardedDataParallel(
              (_fsdp_wrapped_module): FlattenParamsWrapper(
                (_fpw_module): CheckpointWrapper(
                  (_checkpoint_wrapped_module): GPTBlock(
                    (ln_1): LayerNorm((2048,), eps=1e-05, elementwise_affine=True)
                    (causal_attn): FlashCausalAttention(
                      (W_qkv): Linear(in_features=2048, out_features=6144, bias=True)
                      (causal_attn): FlashAttention()
                      (out_proj): Linear(in_features=2048, out_features=2048, bias=True)
                      (q_ln): LayerNorm((2048,), eps=1e-05, elementwise_affine=True)
                      (k_ln): LayerNorm((2048,), eps=1e-05, elementwise_affine=True)
                    )
                    (ln_2): LayerNorm((2048,), eps=1e-05, elementwise_affine=True)
                    (mlp): GPTMLP(
                      (mlp_up): Linear(in_features=2048, out_features=8192, bias=True)
                      (mlp_act): GELU(approximate='none')
                      (mlp_down): Linear(in_features=8192, out_features=2048, bias=True)
                    )
                    (resid_attn_dropout): Dropout(p=0, inplace=False)
                    (resid_mlp_dropout): Dropout(p=0, inplace=False)
                  )
                )
              )
            )
            (12): FullyShardedDataParallel(
              (_fsdp_wrapped_module): FlattenParamsWrapper(
                (_fpw_module): CheckpointWrapper(
                  (_checkpoint_wrapped_module): GPTBlock(
                    (ln_1): LayerNorm((2048,), eps=1e-05, elementwise_affine=True)
                    (causal_attn): FlashCausalAttention(
                      (W_qkv): Linear(in_features=2048, out_features=6144, bias=True)
                      (causal_attn): FlashAttention()
                      (out_proj): Linear(in_features=2048, out_features=2048, bias=True)
                      (q_ln): LayerNorm((2048,), eps=1e-05, elementwise_affine=True)
                      (k_ln): LayerNorm((2048,), eps=1e-05, elementwise_affine=True)
                    )
                    (ln_2): LayerNorm((2048,), eps=1e-05, elementwise_affine=True)
                    (mlp): GPTMLP(
                      (mlp_up): Linear(in_features=2048, out_features=8192, bias=True)
                      (mlp_act): GELU(approximate='none')
                      (mlp_down): Linear(in_features=8192, out_features=2048, bias=True)
                    )
                    (resid_attn_dropout): Dropout(p=0, inplace=False)
                    (resid_mlp_dropout): Dropout(p=0, inplace=False)
                  )
                )
              )
            )
            (13): FullyShardedDataParallel(
              (_fsdp_wrapped_module): FlattenParamsWrapper(
                (_fpw_module): CheckpointWrapper(
                  (_checkpoint_wrapped_module): GPTBlock(
                    (ln_1): LayerNorm((2048,), eps=1e-05, elementwise_affine=True)
                    (causal_attn): FlashCausalAttention(
                      (W_qkv): Linear(in_features=2048, out_features=6144, bias=True)
                      (causal_attn): FlashAttention()
                      (out_proj): Linear(in_features=2048, out_features=2048, bias=True)
                      (q_ln): LayerNorm((2048,), eps=1e-05, elementwise_affine=True)
                      (k_ln): LayerNorm((2048,), eps=1e-05, elementwise_affine=True)
                    )
                    (ln_2): LayerNorm((2048,), eps=1e-05, elementwise_affine=True)
                    (mlp): GPTMLP(
                      (mlp_up): Linear(in_features=2048, out_features=8192, bias=True)
                      (mlp_act): GELU(approximate='none')
                      (mlp_down): Linear(in_features=8192, out_features=2048, bias=True)
                    )
                    (resid_attn_dropout): Dropout(p=0, inplace=False)
                    (resid_mlp_dropout): Dropout(p=0, inplace=False)
                  )
                )
              )
            )
            (14): FullyShardedDataParallel(
              (_fsdp_wrapped_module): FlattenParamsWrapper(
                (_fpw_module): CheckpointWrapper(
                  (_checkpoint_wrapped_module): GPTBlock(
                    (ln_1): LayerNorm((2048,), eps=1e-05, elementwise_affine=True)
                    (causal_attn): FlashCausalAttention(
                      (W_qkv): Linear(in_features=2048, out_features=6144, bias=True)
                      (causal_attn): FlashAttention()
                      (out_proj): Linear(in_features=2048, out_features=2048, bias=True)
                      (q_ln): LayerNorm((2048,), eps=1e-05, elementwise_affine=True)
                      (k_ln): LayerNorm((2048,), eps=1e-05, elementwise_affine=True)
                    )
                    (ln_2): LayerNorm((2048,), eps=1e-05, elementwise_affine=True)
                    (mlp): GPTMLP(
                      (mlp_up): Linear(in_features=2048, out_features=8192, bias=True)
                      (mlp_act): GELU(approximate='none')
                      (mlp_down): Linear(in_features=8192, out_features=2048, bias=True)
                    )
                    (resid_attn_dropout): Dropout(p=0, inplace=False)
                    (resid_mlp_dropout): Dropout(p=0, inplace=False)
                  )
                )
              )
            )
            (15): FullyShardedDataParallel(
              (_fsdp_wrapped_module): FlattenParamsWrapper(
                (_fpw_module): CheckpointWrapper(
                  (_checkpoint_wrapped_module): GPTBlock(
                    (ln_1): LayerNorm((2048,), eps=1e-05, elementwise_affine=True)
                    (causal_attn): FlashCausalAttention(
                      (W_qkv): Linear(in_features=2048, out_features=6144, bias=True)
                      (causal_attn): FlashAttention()
                      (out_proj): Linear(in_features=2048, out_features=2048, bias=True)
                      (q_ln): LayerNorm((2048,), eps=1e-05, elementwise_affine=True)
                      (k_ln): LayerNorm((2048,), eps=1e-05, elementwise_affine=True)
                    )
                    (ln_2): LayerNorm((2048,), eps=1e-05, elementwise_affine=True)
                    (mlp): GPTMLP(
                      (mlp_up): Linear(in_features=2048, out_features=8192, bias=True)
                      (mlp_act): GELU(approximate='none')
                      (mlp_down): Linear(in_features=8192, out_features=2048, bias=True)
                    )
                    (resid_attn_dropout): Dropout(p=0, inplace=False)
                    (resid_mlp_dropout): Dropout(p=0, inplace=False)
                  )
                )
              )
            )
            (16): FullyShardedDataParallel(
              (_fsdp_wrapped_module): FlattenParamsWrapper(
                (_fpw_module): CheckpointWrapper(
                  (_checkpoint_wrapped_module): GPTBlock(
                    (ln_1): LayerNorm((2048,), eps=1e-05, elementwise_affine=True)
                    (causal_attn): FlashCausalAttention(
                      (W_qkv): Linear(in_features=2048, out_features=6144, bias=True)
                      (causal_attn): FlashAttention()
                      (out_proj): Linear(in_features=2048, out_features=2048, bias=True)
                      (q_ln): LayerNorm((2048,), eps=1e-05, elementwise_affine=True)
                      (k_ln): LayerNorm((2048,), eps=1e-05, elementwise_affine=True)
                    )
                    (ln_2): LayerNorm((2048,), eps=1e-05, elementwise_affine=True)
                    (mlp): GPTMLP(
                      (mlp_up): Linear(in_features=2048, out_features=8192, bias=True)
                      (mlp_act): GELU(approximate='none')
                      (mlp_down): Linear(in_features=8192, out_features=2048, bias=True)
                    )
                    (resid_attn_dropout): Dropout(p=0, inplace=False)
                    (resid_mlp_dropout): Dropout(p=0, inplace=False)
                  )
                )
              )
            )
            (17): FullyShardedDataParallel(
              (_fsdp_wrapped_module): FlattenParamsWrapper(
                (_fpw_module): CheckpointWrapper(
                  (_checkpoint_wrapped_module): GPTBlock(
                    (ln_1): LayerNorm((2048,), eps=1e-05, elementwise_affine=True)
                    (causal_attn): FlashCausalAttention(
                      (W_qkv): Linear(in_features=2048, out_features=6144, bias=True)
                      (causal_attn): FlashAttention()
                      (out_proj): Linear(in_features=2048, out_features=2048, bias=True)
                      (q_ln): LayerNorm((2048,), eps=1e-05, elementwise_affine=True)
                      (k_ln): LayerNorm((2048,), eps=1e-05, elementwise_affine=True)
                    )
                    (ln_2): LayerNorm((2048,), eps=1e-05, elementwise_affine=True)
                    (mlp): GPTMLP(
                      (mlp_up): Linear(in_features=2048, out_features=8192, bias=True)
                      (mlp_act): GELU(approximate='none')
                      (mlp_down): Linear(in_features=8192, out_features=2048, bias=True)
                    )
                    (resid_attn_dropout): Dropout(p=0, inplace=False)
                    (resid_mlp_dropout): Dropout(p=0, inplace=False)
                  )
                )
              )
            )
            (18): FullyShardedDataParallel(
              (_fsdp_wrapped_module): FlattenParamsWrapper(
                (_fpw_module): CheckpointWrapper(
                  (_checkpoint_wrapped_module): GPTBlock(
                    (ln_1): LayerNorm((2048,), eps=1e-05, elementwise_affine=True)
                    (causal_attn): FlashCausalAttention(
                      (W_qkv): Linear(in_features=2048, out_features=6144, bias=True)
                      (causal_attn): FlashAttention()
                      (out_proj): Linear(in_features=2048, out_features=2048, bias=True)
                      (q_ln): LayerNorm((2048,), eps=1e-05, elementwise_affine=True)
                      (k_ln): LayerNorm((2048,), eps=1e-05, elementwise_affine=True)
                    )
                    (ln_2): LayerNorm((2048,), eps=1e-05, elementwise_affine=True)
                    (mlp): GPTMLP(
                      (mlp_up): Linear(in_features=2048, out_features=8192, bias=True)
                      (mlp_act): GELU(approximate='none')
                      (mlp_down): Linear(in_features=8192, out_features=2048, bias=True)
                    )
                    (resid_attn_dropout): Dropout(p=0, inplace=False)
                    (resid_mlp_dropout): Dropout(p=0, inplace=False)
                  )
                )
              )
            )
            (19): FullyShardedDataParallel(
              (_fsdp_wrapped_module): FlattenParamsWrapper(
                (_fpw_module): CheckpointWrapper(
                  (_checkpoint_wrapped_module): GPTBlock(
                    (ln_1): LayerNorm((2048,), eps=1e-05, elementwise_affine=True)
                    (causal_attn): FlashCausalAttention(
                      (W_qkv): Linear(in_features=2048, out_features=6144, bias=True)
                      (causal_attn): FlashAttention()
                      (out_proj): Linear(in_features=2048, out_features=2048, bias=True)
                      (q_ln): LayerNorm((2048,), eps=1e-05, elementwise_affine=True)
                      (k_ln): LayerNorm((2048,), eps=1e-05, elementwise_affine=True)
                    )
                    (ln_2): LayerNorm((2048,), eps=1e-05, elementwise_affine=True)
                    (mlp): GPTMLP(
                      (mlp_up): Linear(in_features=2048, out_features=8192, bias=True)
                      (mlp_act): GELU(approximate='none')
                      (mlp_down): Linear(in_features=8192, out_features=2048, bias=True)
                    )
                    (resid_attn_dropout): Dropout(p=0, inplace=False)
                    (resid_mlp_dropout): Dropout(p=0, inplace=False)
                  )
                )
              )
            )
            (20): FullyShardedDataParallel(
              (_fsdp_wrapped_module): FlattenParamsWrapper(
                (_fpw_module): CheckpointWrapper(
                  (_checkpoint_wrapped_module): GPTBlock(
                    (ln_1): LayerNorm((2048,), eps=1e-05, elementwise_affine=True)
                    (causal_attn): FlashCausalAttention(
                      (W_qkv): Linear(in_features=2048, out_features=6144, bias=True)
                      (causal_attn): FlashAttention()
                      (out_proj): Linear(in_features=2048, out_features=2048, bias=True)
                      (q_ln): LayerNorm((2048,), eps=1e-05, elementwise_affine=True)
                      (k_ln): LayerNorm((2048,), eps=1e-05, elementwise_affine=True)
                    )
                    (ln_2): LayerNorm((2048,), eps=1e-05, elementwise_affine=True)
                    (mlp): GPTMLP(
                      (mlp_up): Linear(in_features=2048, out_features=8192, bias=True)
                      (mlp_act): GELU(approximate='none')
                      (mlp_down): Linear(in_features=8192, out_features=2048, bias=True)
                    )
                    (resid_attn_dropout): Dropout(p=0, inplace=False)
                    (resid_mlp_dropout): Dropout(p=0, inplace=False)
                  )
                )
              )
            )
            (21): FullyShardedDataParallel(
              (_fsdp_wrapped_module): FlattenParamsWrapper(
                (_fpw_module): CheckpointWrapper(
                  (_checkpoint_wrapped_module): GPTBlock(
                    (ln_1): LayerNorm((2048,), eps=1e-05, elementwise_affine=True)
                    (causal_attn): FlashCausalAttention(
                      (W_qkv): Linear(in_features=2048, out_features=6144, bias=True)
                      (causal_attn): FlashAttention()
                      (out_proj): Linear(in_features=2048, out_features=2048, bias=True)
                      (q_ln): LayerNorm((2048,), eps=1e-05, elementwise_affine=True)
                      (k_ln): LayerNorm((2048,), eps=1e-05, elementwise_affine=True)
                    )
                    (ln_2): LayerNorm((2048,), eps=1e-05, elementwise_affine=True)
                    (mlp): GPTMLP(
                      (mlp_up): Linear(in_features=2048, out_features=8192, bias=True)
                      (mlp_act): GELU(approximate='none')
                      (mlp_down): Linear(in_features=8192, out_features=2048, bias=True)
                    )
                    (resid_attn_dropout): Dropout(p=0, inplace=False)
                    (resid_mlp_dropout): Dropout(p=0, inplace=False)
                  )
                )
              )
            )
            (22): FullyShardedDataParallel(
              (_fsdp_wrapped_module): FlattenParamsWrapper(
                (_fpw_module): CheckpointWrapper(
                  (_checkpoint_wrapped_module): GPTBlock(
                    (ln_1): LayerNorm((2048,), eps=1e-05, elementwise_affine=True)
                    (causal_attn): FlashCausalAttention(
                      (W_qkv): Linear(in_features=2048, out_features=6144, bias=True)
                      (causal_attn): FlashAttention()
                      (out_proj): Linear(in_features=2048, out_features=2048, bias=True)
                      (q_ln): LayerNorm((2048,), eps=1e-05, elementwise_affine=True)
                      (k_ln): LayerNorm((2048,), eps=1e-05, elementwise_affine=True)
                    )
                    (ln_2): LayerNorm((2048,), eps=1e-05, elementwise_affine=True)
                    (mlp): GPTMLP(
                      (mlp_up): Linear(in_features=2048, out_features=8192, bias=True)
                      (mlp_act): GELU(approximate='none')
                      (mlp_down): Linear(in_features=8192, out_features=2048, bias=True)
                    )
                    (resid_attn_dropout): Dropout(p=0, inplace=False)
                    (resid_mlp_dropout): Dropout(p=0, inplace=False)
                  )
                )
              )
            )
            (23): FullyShardedDataParallel(
              (_fsdp_wrapped_module): FlattenParamsWrapper(
                (_fpw_module): CheckpointWrapper(
                  (_checkpoint_wrapped_module): GPTBlock(
                    (ln_1): LayerNorm((2048,), eps=1e-05, elementwise_affine=True)
                    (causal_attn): FlashCausalAttention(
                      (W_qkv): Linear(in_features=2048, out_features=6144, bias=True)
                      (causal_attn): FlashAttention()
                      (out_proj): Linear(in_features=2048, out_features=2048, bias=True)
                      (q_ln): LayerNorm((2048,), eps=1e-05, elementwise_affine=True)
                      (k_ln): LayerNorm((2048,), eps=1e-05, elementwise_affine=True)
                    )
                    (ln_2): LayerNorm((2048,), eps=1e-05, elementwise_affine=True)
                    (mlp): GPTMLP(
                      (mlp_up): Linear(in_features=2048, out_features=8192, bias=True)
                      (mlp_act): GELU(approximate='none')
                      (mlp_down): Linear(in_features=8192, out_features=2048, bias=True)
                    )
                    (resid_attn_dropout): Dropout(p=0, inplace=False)
                    (resid_mlp_dropout): Dropout(p=0, inplace=False)
                  )
                )
              )
            )
          )
          (ln_f): LayerNorm((2048,), eps=1e-05, elementwise_affine=True)
        )
      )
    )
  )
)
FSDP: Using sharding_strategy=ShardingStrategy.FULL_SHARD
FSDP: Using cpu_offload=None
FSDP: Using mixed_precision=MixedPrecision(param_dtype=None, reduce_dtype=torch.bfloat16, buffer_dtype=torch.float32, keep_low_precision_grads=False)
FSDP: Using backward_prefetch=BackwardPrefetch.BACKWARD_POST
FSDP: Using min_params=1000000000
…
