…
4691/5151 [00:01<00:00, 4058.76it/s]100%|█████████▉| 5150/5151 [00:01<00:00, 4213.13it/s]100%|██████████| 5151/5151 [00:01<00:00, 3637.03it/s]
/usr/lib/python3/dist-packages/torch/distributed/distributed_c10d.py:2387: UserWarning: torch.distributed._all_gather_base is a private function and will be deprecated. Please use torch.distributed.all_gather_into_tensor instead.
  warnings.warn(
FSDP: Wrapped Model:
ComposerMosaicGPT(
  (model): FullyShardedDataParallel(
    (_fsdp_wrapped_module): FlattenParamsWrapper(
      (_fpw_module): MosaicGPT(
        (transformer): ModuleDict(
          (wte): Embedding(50257, 8192)
          (wpe): Embedding(2048, 8192)
          (emb_drop): Dropout(p=0.0, inplace=False)
          (blocks): ModuleList(
            (0): FullyShardedDataParallel(
              (_fsdp_wrapped_module): FlattenParamsWrapper(
                (_fpw_module): CheckpointWrapper(
                  (_checkpoint_wrapped_module): GPTBlock(
                    (ln_1): LayerNorm((8192,), eps=1e-05, elementwise_affine=True)
                    (causal_attn): FlashCausalAttention(
                      (mhsa): FlashMHA(
                        (Wqkv): Linear(in_features=8192, out_features=24576, bias=True)
                        (inner_attn): FlashAttention()
                        (out_proj): Linear(in_features=8192, out_features=8192, bias=True)
                      )
                    )
                    (ln_2): LayerNorm((8192,), eps=1e-05, elementwise_affine=True)
                    (mlp): GPTMLP(
                      (mlp_up): Linear(in_features=8192, out_features=32768, bias=True)
                      (mlp_act): GELU(approximate='none')
                      (mlp_down): Linear(in_features=32768, out_features=8192, bias=True)
                    )
                    (resid_attn_dropout): Dropout(p=0.0, inplace=False)
                    (resid_mlp_dropout): Dropout(p=0.0, inplace=False)
                  )
                )
              )
            )
            (1): FullyShardedDataParallel(
              (_fsdp_wrapped_module): FlattenParamsWrapper(
                (_fpw_module): CheckpointWrapper(
                  (_checkpoint_wrapped_module): GPTBlock(
                    (ln_1): LayerNorm((8192,), eps=1e-05, elementwise_affine=True)
                    (causal_attn): FlashCausalAttention(
                      (mhsa): FlashMHA(
                        (Wqkv): Linear(in_features=8192, out_features=24576, bias=True)
                        (inner_attn): FlashAttention()
                        (out_proj): Linear(in_features=8192, out_features=8192, bias=True)
                      )
                    )
                    (ln_2): LayerNorm((8192,), eps=1e-05, elementwise_affine=True)
                    (mlp): GPTMLP(
                      (mlp_up): Linear(in_features=8192, out_features=32768, bias=True)
                      (mlp_act): GELU(approximate='none')
                      (mlp_down): Linear(in_features=32768, out_features=8192, bias=True)
                    )
                    (resid_attn_dropout): Dropout(p=0.0, inplace=False)
                    (resid_mlp_dropout): Dropout(p=0.0, inplace=False)
                  )
                )
              )
            )
            (2): FullyShardedDataParallel(
              (_fsdp_wrapped_module): FlattenParamsWrapper(
                (_fpw_module): CheckpointWrapper(
                  (_checkpoint_wrapped_module): GPTBlock(
                    (ln_1): LayerNorm((8192,), eps=1e-05, elementwise_affine=True)
                    (causal_attn): FlashCausalAttention(
                      (mhsa): FlashMHA(
                        (Wqkv): Linear(in_features=8192, out_features=24576, bias=True)
                        (inner_attn): FlashAttention()
                        (out_proj): Linear(in_features=8192, out_features=8192, bias=True)
                      )
                    )
                    (ln_2): LayerNorm((8192,), eps=1e-05, elementwise_affine=True)
                    (mlp): GPTMLP(
                      (mlp_up): Linear(in_features=8192, out_features=32768, bias=True)
                      (mlp_act): GELU(approximate='none')
                      (mlp_down): Linear(in_features=32768, out_features=8192, bias=True)
                    )
                    (resid_attn_dropout): Dropout(p=0.0, inplace=False)
                    (resid_mlp_dropout): Dropout(p=0.0, inplace=False)
                  )
                )
              )
            )
            (3): FullyShardedDataParallel(
              (_fsdp_wrapped_module): FlattenParamsWrapper(
                (_fpw_module): CheckpointWrapper(
                  (_checkpoint_wrapped_module): GPTBlock(
                    (ln_1): LayerNorm((8192,), eps=1e-05, elementwise_affine=True)
                    (causal_attn): FlashCausalAttention(
                      (mhsa): FlashMHA(
                        (Wqkv): Linear(in_features=8192, out_features=24576, bias=True)
                        (inner_attn): FlashAttention()
                        (out_proj): Linear(in_features=8192, out_features=8192, bias=True)
                      )
                    )
                    (ln_2): LayerNorm((8192,), eps=1e-05, elementwise_affine=True)
                    (mlp): GPTMLP(
                      (mlp_up): Linear(in_features=8192, out_features=32768, bias=True)
                      (mlp_act): GELU(approximate='none')
                      (mlp_down): Linear(in_features=32768, out_features=8192, bias=True)
                    )
                    (resid_attn_dropout): Dropout(p=0.0, inplace=False)
                    (resid_mlp_dropout): Dropout(p=0.0, inplace=False)
                  )
                )
              )
            )
            (4): FullyShardedDataParallel(
              (_fsdp_wrapped_module): FlattenParamsWrapper(
                (_fpw_module): CheckpointWrapper(
                  (_checkpoint_wrapped_module): GPTBlock(
                    (ln_1): LayerNorm((8192,), eps=1e-05, elementwise_affine=True)
                    (causal_attn): FlashCausalAttention(
                      (mhsa): FlashMHA(
                        (Wqkv): Linear(in_features=8192, out_features=24576, bias=True)
                        (inner_attn): FlashAttention()
                        (out_proj): Linear(in_features=8192, out_features=8192, bias=True)
                      )
                    )
                    (ln_2): LayerNorm((8192,), eps=1e-05, elementwise_affine=True)
                    (mlp): GPTMLP(
                      (mlp_up): Linear(in_features=8192, out_features=32768, bias=True)
                      (mlp_act): GELU(approximate='none')
                      (mlp_down): Linear(in_features=32768, out_features=8192, bias=True)
                    )
                    (resid_attn_dropout): Dropout(p=0.0, inplace=False)
                    (resid_mlp_dropout): Dropout(p=0.0, inplace=False)
                  )
                )
              )
            )
            (5): FullyShardedDataParallel(
              (_fsdp_wrapped_module): FlattenParamsWrapper(
                (_fpw_module): CheckpointWrapper(
                  (_checkpoint_wrapped_module): GPTBlock(
                    (ln_1): LayerNorm((8192,), eps=1e-05, elementwise_affine=True)
                    (causal_attn): FlashCausalAttention(
                      (mhsa): FlashMHA(
                        (Wqkv): Linear(in_features=8192, out_features=24576, bias=True)
                        (inner_attn): FlashAttention()
                        (out_proj): Linear(in_features=8192, out_features=8192, bias=True)
                      )
                    )
                    (ln_2): LayerNorm((8192,), eps=1e-05, elementwise_affine=True)
                    (mlp): GPTMLP(
                      (mlp_up): Linear(in_features=8192, out_features=32768, bias=True)
                      (mlp_act): GELU(approximate='none')
                      (mlp_down): Linear(in_features=32768, out_features=8192, bias=True)
                    )
                    (resid_attn_dropout): Dropout(p=0.0, inplace=False)
                    (resid_mlp_dropout): Dropout(p=0.0, inplace=False)
                  )
                )
              )
            )
            (6): FullyShardedDataParallel(
              (_fsdp_wrapped_module): FlattenParamsWrapper(
                (_fpw_module): CheckpointWrapper(
                  (_checkpoint_wrapped_module): GPTBlock(
                    (ln_1): LayerNorm((8192,), eps=1e-05, elementwise_affine=True)
                    (causal_attn): FlashCausalAttention(
                      (mhsa): FlashMHA(
                        (Wqkv): Linear(in_features=8192, out_features=24576, bias=True)
                        (inner_attn): FlashAttention()
                        (out_proj): Linear(in_features=8192, out_features=8192, bias=True)
                      )
                    )
                    (ln_2): LayerNorm((8192,), eps=1e-05, elementwise_affine=True)
                    (mlp): GPTMLP(
                      (mlp_up): Linear(in_features=8192, out_features=32768, bias=True)
                      (mlp_act): GELU(approximate='none')
                      (mlp_down): Linear(in_features=32768, out_features=8192, bias=True)
                    )
                    (resid_attn_dropout): Dropout(p=0.0, inplace=False)
                    (resid_mlp_dropout): Dropout(p=0.0, inplace=False)
                  )
                )
              )
            )
            (7): FullyShardedDataParallel(
              (_fsdp_wrapped_module): FlattenParamsWrapper(
                (_fpw_module): CheckpointWrapper(
                  (_checkpoint_wrapped_module): GPTBlock(
                    (ln_1): LayerNorm((8192,), eps=1e-05, elementwise_affine=True)
                    (causal_attn): FlashCausalAttention(
                      (mhsa): FlashMHA(
                        (Wqkv): Linear(in_features=8192, out_features=24576, bias=True)
                        (inner_attn): FlashAttention()
                        (out_proj): Linear(in_features=8192, out_features=8192, bias=True)
                      )
                    )
                    (ln_2): LayerNorm((8192,), eps=1e-05, elementwise_affine=True)
                    (mlp): GPTMLP(
                      (mlp_up): Linear(in_features=8192, out_features=32768, bias=True)
                      (mlp_act): GELU(approximate='none')
                      (mlp_down): Linear(in_features=32768, out_features=8192, bias=True)
                    )
                    (resid_attn_dropout): Dropout(p=0.0, inplace=False)
                    (resid_mlp_dropout): Dropout(p=0.0, inplace=False)
                  )
                )
              )
            )
            (8): FullyShardedDataParallel(
              (_fsdp_wrapped_module): FlattenParamsWrapper(
                (_fpw_module): CheckpointWrapper(
                  (_checkpoint_wrapped_module): GPTBlock(
                    (ln_1): LayerNorm((8192,), eps=1e-05, elementwise_affine=True)
                    (causal_attn): FlashCausalAttention(
                      (mhsa): FlashMHA(
                        (Wqkv): Linear(in_features=8192, out_features=24576, bias=True)
                        (inner_attn): FlashAttention()
                        (out_proj): Linear(in_features=8192, out_features=8192, bias=True)
                      )
                    )
                    (ln_2): LayerNorm((8192,), eps=1e-05, elementwise_affine=True)
                    (mlp): GPTMLP(
                      (mlp_up): Linear(in_features=8192, out_features=32768, bias=True)
                      (mlp_act): GELU(approximate='none')
                      (mlp_down): Linear(in_features=32768, out_features=8192, bias=True)
                    )
                    (resid_attn_dropout): Dropout(p=0.0, inplace=False)
                    (resid_mlp_dropout): Dropout(p=0.0, inplace=False)
                  )
                )
              )
            )
            (9): FullyShardedDataParallel(
              (_fsdp_wrapped_module): FlattenParamsWrapper(
                (_fpw_module): CheckpointWrapper(
                  (_checkpoint_wrapped_module): GPTBlock(
                    (ln_1): LayerNorm((8192,), eps=1e-05, elementwise_affine=True)
                    (causal_attn): FlashCausalAttention(
                      (mhsa): FlashMHA(
                        (Wqkv): Linear(in_features=8192, out_features=24576, bias=True)
                        (inner_attn): FlashAttention()
                        (out_proj): Linear(in_features=8192, out_features=8192, bias=True)
                      )
                    )
                    (ln_2): LayerNorm((8192,), eps=1e-05, elementwise_affine=True)
                    (mlp): GPTMLP(
                      (mlp_up): Linear(in_features=8192, out_features=32768, bias=True)
                      (mlp_act): GELU(approximate='none')
                      (mlp_down): Linear(in_features=32768, out_features=8192, bias=True)
                    )
                    (resid_attn_dropout): Dropout(p=0.0, inplace=False)
                    (resid_mlp_dropout): Dropout(p=0.0, inplace=False)
                  )
                )
              )
            )
            (10): FullyShardedDataParallel(
              (_fsdp_wrapped_module): FlattenParamsWrapper(
                (_fpw_module): CheckpointWrapper(
                  (_checkpoint_wrapped_module): GPTBlock(
                    (ln_1): LayerNorm((8192,), eps=1e-05, elementwise_affine=True)
                    (causal_attn): FlashCausalAttention(
                      (mhsa): FlashMHA(
                        (Wqkv): Linear(in_features=8192, out_features=24576, bias=True)
                        (inner_attn): FlashAttention()
                        (out_proj): Linear(in_features=8192, out_features=8192, bias=True)
                      )
                    )
                    (ln_2): LayerNorm((8192,), eps=1e-05, elementwise_affine=True)
                    (mlp): GPTMLP(
                      (mlp_up): Linear(in_features=8192, out_features=32768, bias=True)
                      (mlp_act): GELU(approximate='none')
                      (mlp_down): Linear(in_features=32768, out_features=8192, bias=True)
                    )
                    (resid_attn_dropout): Dropout(p=0.0, inplace=False)
                    (resid_mlp_dropout): Dropout(p=0.0, inplace=False)
                  )
                )
              )
            )
            (11): FullyShardedDataParallel(
              (_fsdp_wrapped_module): FlattenParamsWrapper(
                (_fpw_module): CheckpointWrapper(
                  (_checkpoint_wrapped_module): GPTBlock(
                    (ln_1): LayerNorm((8192,), eps=1e-05, elementwise_affine=True)
                    (causal_attn): FlashCausalAttention(
                      (mhsa): FlashMHA(
                        (Wqkv): Linear(in_features=8192, out_features=24576, bias=True)
                        (inner_attn): FlashAttention()
                        (out_proj): Linear(in_features=8192, out_features=8192, bias=True)
                      )
                    )
                    (ln_2): LayerNorm((8192,), eps=1e-05, elementwise_affine=True)
                    (mlp): GPTMLP(
                      (mlp_up): Linear(in_features=8192, out_features=32768, bias=True)
                      (mlp_act): GELU(approximate='none')
                      (mlp_down): Linear(in_features=32768, out_features=8192, bias=True)
                    )
                    (resid_attn_dropout): Dropout(p=0.0, inplace=False)
                    (resid_mlp_dropout): Dropout(p=0.0, inplace=False)
                  )
                )
              )
            )
            (12): FullyShardedDataParallel(
              (_fsdp_wrapped_module): FlattenParamsWrapper(
                (_fpw_module): CheckpointWrapper(
                  (_checkpoint_wrapped_module): GPTBlock(
                    (ln_1): LayerNorm((8192,), eps=1e-05, elementwise_affine=True)
                    (causal_attn): FlashCausalAttention(
                      (mhsa): FlashMHA(
                        (Wqkv): Linear(in_features=8192, out_features=24576, bias=True)
                        (inner_attn): FlashAttention()
                        (out_proj): Linear(in_features=8192, out_features=8192, bias=True)
                      )
                    )
                    (ln_2): LayerNorm((8192,), eps=1e-05, elementwise_affine=True)
                    (mlp): GPTMLP(
                      (mlp_up): Linear(in_features=8192, out_features=32768, bias=True)
                      (mlp_act): GELU(approximate='none')
                      (mlp_down): Linear(in_features=32768, out_features=8192, bias=True)
                    )
                    (resid_attn_dropout): Dropout(p=0.0, inplace=False)
                    (resid_mlp_dropout): Dropout(p=0.0, inplace=False)
                  )
                )
              )
            )
            (13): FullyShardedDataParallel(
              (_fsdp_wrapped_module): FlattenParamsWrapper(
                (_fpw_module): CheckpointWrapper(
                  (_checkpoint_wrapped_module): GPTBlock(
                    (ln_1): LayerNorm((8192,), eps=1e-05, elementwise_affine=True)
                    (causal_attn): FlashCausalAttention(
                      (mhsa): FlashMHA(
                        (Wqkv): Linear(in_features=8192, out_features=24576, bias=True)
                        (inner_attn): FlashAttention()
                        (out_proj): Linear(in_features=8192, out_features=8192, bias=True)
                      )
                    )
                    (ln_2): LayerNorm((8192,), eps=1e-05, elementwise_affine=True)
                    (mlp): GPTMLP(
                      (mlp_up): Linear(in_features=8192, out_features=32768, bias=True)
                      (mlp_act): GELU(approximate='none')
                      (mlp_down): Linear(in_features=32768, out_features=8192, bias=True)
                    )
                    (resid_attn_dropout): Dropout(p=0.0, inplace=False)
                    (resid_mlp_dropout): Dropout(p=0.0, inplace=False)
                  )
                )
              )
            )
            (14): FullyShardedDataParallel(
              (_fsdp_wrapped_module): FlattenParamsWrapper(
                (_fpw_module): CheckpointWrapper(
                  (_checkpoint_wrapped_module): GPTBlock(
                    (ln_1): LayerNorm((8192,), eps=1e-05, elementwise_affine=True)
                    (causal_attn): FlashCausalAttention(
                      (mhsa): FlashMHA(
                        (Wqkv): Linear(in_features=8192, out_features=24576, bias=True)
                        (inner_attn): FlashAttention()
                        (out_proj): Linear(in_features=8192, out_features=8192, bias=True)
                      )
                    )
                    (ln_2): LayerNorm((8192,), eps=1e-05, elementwise_affine=True)
                    (mlp): GPTMLP(
                      (mlp_up): Linear(in_features=8192, out_features=32768, bias=True)
                      (mlp_act): GELU(approximate='none')
                      (mlp_down): Linear(in_features=32768, out_features=8192, bias=True)
                    )
                    (resid_attn_dropout): Dropout(p=0.0, inplace=False)
                    (resid_mlp_dropout): Dropout(p=0.0, inplace=False)
                  )
                )
              )
            )
            (15): FullyShardedDataParallel(
              (_fsdp_wrapped_module): FlattenParamsWrapper(
                (_fpw_module): CheckpointWrapper(
                  (_checkpoint_wrapped_module): GPTBlock(
                    (ln_1): LayerNorm((8192,), eps=1e-05, elementwise_affine=True)
                    (causal_attn): FlashCausalAttention(
                      (mhsa): FlashMHA(
                        (Wqkv): Linear(in_features=8192, out_features=24576, bias=True)
                        (inner_attn): FlashAttention()
                        (out_proj): Linear(in_features=8192, out_features=8192, bias=True)
                      )
                    )
                    (ln_2): LayerNorm((8192,), eps=1e-05, elementwise_affine=True)
                    (mlp): GPTMLP(
                      (mlp_up): Linear(in_features=8192, out_features=32768, bias=True)
                      (mlp_act): GELU(approximate='none')
                      (mlp_down): Linear(in_features=32768, out_features=8192, bias=True)
                    )
                    (resid_attn_dropout): Dropout(p=0.0, inplace=False)
                    (resid_mlp_dropout): Dropout(p=0.0, inplace=False)
                  )
                )
              )
            )
            (16): FullyShardedDataParallel(
              (_fsdp_wrapped_module): FlattenParamsWrapper(
                (_fpw_module): CheckpointWrapper(
                  (_checkpoint_wrapped_module): GPTBlock(
                    (ln_1): LayerNorm((8192,), eps=1e-05, elementwise_affine=True)
                    (causal_attn): FlashCausalAttention(
                      (mhsa): FlashMHA(
                        (Wqkv): Linear(in_features=8192, out_features=24576, bias=True)
                        (inner_attn): FlashAttention()
                        (out_proj): Linear(in_features=8192, out_features=8192, bias=True)
                      )
                    )
                    (ln_2): LayerNorm((8192,), eps=1e-05, elementwise_affine=True)
                    (mlp): GPTMLP(
                      (mlp_up): Linear(in_features=8192, out_features=32768, bias=True)
                      (mlp_act): GELU(approximate='none')
                      (mlp_down): Linear(in_features=32768, out_features=8192, bias=True)
                    )
                    (resid_attn_dropout): Dropout(p=0.0, inplace=False)
                    (resid_mlp_dropout): Dropout(p=0.0, inplace=False)
                  )
                )
              )
            )
            (17): FullyShardedDataParallel(
              (_fsdp_wrapped_module): FlattenParamsWrapper(
                (_fpw_module): CheckpointWrapper(
                  (_checkpoint_wrapped_module): GPTBlock(
                    (ln_1): LayerNorm((8192,), eps=1e-05, elementwise_affine=True)
                    (causal_attn): FlashCausalAttention(
                      (mhsa): FlashMHA(
                        (Wqkv): Linear(in_features=8192, out_features=24576, bias=True)
                        (inner_attn): FlashAttention()
                        (out_proj): Linear(in_features=8192, out_features=8192, bias=True)
                      )
                    )
                    (ln_2): LayerNorm((8192,), eps=1e-05, elementwise_affine=True)
                    (mlp): GPTMLP(
                      (mlp_up): Linear(in_features=8192, out_features=32768, bias=True)
                      (mlp_act): GELU(approximate='none')
                      (mlp_down): Linear(in_features=32768, out_features=8192, bias=True)
                    )
                    (resid_attn_dropout): Dropout(p=0.0, inplace=False)
                    (resid_mlp_dropout): Dropout(p=0.0, inplace=False)
                  )
                )
              )
            )
            (18): FullyShardedDataParallel(
              (_fsdp_wrapped_module): FlattenParamsWrapper(
                (_fpw_module): CheckpointWrapper(
                  (_checkpoint_wrapped_module): GPTBlock(
                    (ln_1): LayerNorm((8192,), eps=1e-05, elementwise_affine=True)
                    (causal_attn): FlashCausalAttention(
                      (mhsa): FlashMHA(
                        (Wqkv): Linear(in_features=8192, out_features=24576, bias=True)
                        (inner_attn): FlashAttention()
                        (out_proj): Linear(in_features=8192, out_features=8192, bias=True)
                      )
                    )
                    (ln_2): LayerNorm((8192,), eps=1e-05, elementwise_affine=True)
                    (mlp): GPTMLP(
                      (mlp_up): Linear(in_features=8192, out_features=32768, bias=True)
                      (mlp_act): GELU(approximate='none')
                      (mlp_down): Linear(in_features=32768, out_features=8192, bias=True)
                    )
                    (resid_attn_dropout): Dropout(p=0.0, inplace=False)
                    (resid_mlp_dropout): Dropout(p=0.0, inplace=False)
                  )
                )
              )
            )
            (19): FullyShardedDataParallel(
              (_fsdp_wrapped_module): FlattenParamsWrapper(
                (_fpw_module): CheckpointWrapper(
                  (_checkpoint_wrapped_module): GPTBlock(
                    (ln_1): LayerNorm((8192,), eps=1e-05, elementwise_affine=True)
                    (causal_attn): FlashCausalAttention(
                      (mhsa): FlashMHA(
                        (Wqkv): Linear(in_features=8192, out_features=24576, bias=True)
                        (inner_attn): FlashAttention()
                        (out_proj): Linear(in_features=8192, out_features=8192, bias=True)
                      )
                    )
                    (ln_2): LayerNorm((8192,), eps=1e-05, elementwise_affine=True)
                    (mlp): GPTMLP(
                      (mlp_up): Linear(in_features=8192, out_features=32768, bias=True)
                      (mlp_act): GELU(approximate='none')
                      (mlp_down): Linear(in_features=32768, out_features=8192, bias=True)
                    )
                    (resid_attn_dropout): Dropout(p=0.0, inplace=False)
                    (resid_mlp_dropout): Dropout(p=0.0, inplace=False)
                  )
                )
              )
            )
            (20): FullyShardedDataParallel(
              (_fsdp_wrapped_module): FlattenParamsWrapper(
                (_fpw_module): CheckpointWrapper(
                  (_checkpoint_wrapped_module): GPTBlock(
                    (ln_1): LayerNorm((8192,), eps=1e-05, elementwise_affine=True)
                    (causal_attn): FlashCausalAttention(
                      (mhsa): FlashMHA(
                        (Wqkv): Linear(in_features=8192, out_features=24576, bias=True)
                        (inner_attn): FlashAttention()
                        (out_proj): Linear(in_features=8192, out_features=8192, bias=True)
                      )
                    )
                    (ln_2): LayerNorm((8192,), eps=1e-05, elementwise_affine=True)
                    (mlp): GPTMLP(
                      (mlp_up): Linear(in_features=8192, out_features=32768, bias=True)
                      (mlp_act): GELU(approximate='none')
                      (mlp_down): Linear(in_features=32768, out_features=8192, bias=True)
                    )
                    (resid_attn_dropout): Dropout(p=0.0, inplace=False)
                    (resid_mlp_dropout): Dropout(p=0.0, inplace=False)
                  )
                )
              )
            )
            (21): FullyShardedDataParallel(
              (_fsdp_wrapped_module): FlattenParamsWrapper(
                (_fpw_module): CheckpointWrapper(
                  (_checkpoint_wrapped_module): GPTBlock(
                    (ln_1): LayerNorm((8192,), eps=1e-05, elementwise_affine=True)
                    (causal_attn): FlashCausalAttention(
                      (mhsa): FlashMHA(
                        (Wqkv): Linear(in_features=8192, out_features=24576, bias=True)
                        (inner_attn): FlashAttention()
                        (out_proj): Linear(in_features=8192, out_features=8192, bias=True)
                      )
                    )
                    (ln_2): LayerNorm((8192,), eps=1e-05, elementwise_affine=True)
                    (mlp): GPTMLP(
                      (mlp_up): Linear(in_features=8192, out_features=32768, bias=True)
                      (mlp_act): GELU(approximate='none')
                      (mlp_down): Linear(in_features=32768, out_features=8192, bias=True)
                    )
                    (resid_attn_dropout): Dropout(p=0.0, inplace=False)
                    (resid_mlp_dropout): Dropout(p=0.0, inplace=False)
                  )
                )
              )
            )
            (22): FullyShardedDataParallel(
              (_fsdp_wrapped_module): FlattenParamsWrapper(
                (_fpw_module): CheckpointWrapper(
                  (_checkpoint_wrapped_module): GPTBlock(
                    (ln_1): LayerNorm((8192,), eps=1e-05, elementwise_affine=True)
                    (causal_attn): FlashCausalAttention(
                      (mhsa): FlashMHA(
                        (Wqkv): Linear(in_features=8192, out_features=24576, bias=True)
                        (inner_attn): FlashAttention()
                        (out_proj): Linear(in_features=8192, out_features=8192, bias=True)
                      )
                    )
                    (ln_2): LayerNorm((8192,), eps=1e-05, elementwise_affine=True)
                    (mlp): GPTMLP(
                      (mlp_up): Linear(in_features=8192, out_features=32768, bias=True)
                      (mlp_act): GELU(approximate='none')
                      (mlp_down): Linear(in_features=32768, out_features=8192, bias=True)
                    )
                    (resid_attn_dropout): Dropout(p=0.0, inplace=False)
                    (resid_mlp_dropout): Dropout(p=0.0, inplace=False)
                  )
                )
              )
            )
            (23): FullyShardedDataParallel(
              (_fsdp_wrapped_module): FlattenParamsWrapper(
                (_fpw_module): CheckpointWrapper(
                  (_checkpoint_wrapped_module): GPTBlock(
                    (ln_1): LayerNorm((8192,), eps=1e-05, elementwise_affine=True)
                    (causal_attn): FlashCausalAttention(
                      (mhsa): FlashMHA(
                        (Wqkv): Linear(in_features=8192, out_features=24576, bias=True)
                        (inner_attn): FlashAttention()
                        (out_proj): Linear(in_features=8192, out_features=8192, bias=True)
                      )
                    )
                    (ln_2): LayerNorm((8192,), eps=1e-05, elementwise_affine=True)
                    (mlp): GPTMLP(
                      (mlp_up): Linear(in_features=8192, out_features=32768, bias=True)
                      (mlp_act): GELU(approximate='none')
                      (mlp_down): Linear(in_features=32768, out_features=8192, bias=True)
                    )
                    (resid_attn_dropout): Dropout(p=0.0, inplace=False)
                    (resid_mlp_dropout): Dropout(p=0.0, inplace=False)
                  )
                )
              )
            )
            (24): FullyShardedDataParallel(
              (_fsdp_wrapped_module): FlattenParamsWrapper(
                (_fpw_module): CheckpointWrapper(
                  (_checkpoint_wrapped_module): GPTBlock(
                    (ln_1): LayerNorm((8192,), eps=1e-05, elementwise_affine=True)
                    (causal_attn): FlashCausalAttention(
                      (mhsa): FlashMHA(
                        (Wqkv): Linear(in_features=8192, out_features=24576, bias=True)
                        (inner_attn): FlashAttention()
                        (out_proj): Linear(in_features=8192, out_features=8192, bias=True)
                      )
                    )
                    (ln_2): LayerNorm((8192,), eps=1e-05, elementwise_affine=True)
                    (mlp): GPTMLP(
                      (mlp_up): Linear(in_features=8192, out_features=32768, bias=True)
                      (mlp_act): GELU(approximate='none')
                      (mlp_down): Linear(in_features=32768, out_features=8192, bias=True)
                    )
                    (resid_attn_dropout): Dropout(p=0.0, inplace=False)
                    (resid_mlp_dropout): Dropout(p=0.0, inplace=False)
                  )
                )
              )
            )
            (25): FullyShardedDataParallel(
              (_fsdp_wrapped_module): FlattenParamsWrapper(
                (_fpw_module): CheckpointWrapper(
                  (_checkpoint_wrapped_module): GPTBlock(
                    (ln_1): LayerNorm((8192,), eps=1e-05, elementwise_affine=True)
                    (causal_attn): FlashCausalAttention(
                      (mhsa): FlashMHA(
                        (Wqkv): Linear(in_features=8192, out_features=24576, bias=True)
                        (inner_attn): FlashAttention()
                        (out_proj): Linear(in_features=8192, out_features=8192, bias=True)
                      )
                    )
                    (ln_2): LayerNorm((8192,), eps=1e-05, elementwise_affine=True)
                    (mlp): GPTMLP(
                      (mlp_up): Linear(in_features=8192, out_features=32768, bias=True)
                      (mlp_act): GELU(approximate='none')
                      (mlp_down): Linear(in_features=32768, out_features=8192, bias=True)
                    )
                    (resid_attn_dropout): Dropout(p=0.0, inplace=False)
                    (resid_mlp_dropout): Dropout(p=0.0, inplace=False)
                  )
                )
              )
            )
            (26): FullyShardedDataParallel(
              (_fsdp_wrapped_module): FlattenParamsWrapper(
                (_fpw_module): CheckpointWrapper(
                  (_checkpoint_wrapped_module): GPTBlock(
                    (ln_1): LayerNorm((8192,), eps=1e-05, elementwise_affine=True)
                    (causal_attn): FlashCausalAttention(
                      (mhsa): FlashMHA(
                        (Wqkv): Linear(in_features=8192, out_features=24576, bias=True)
                        (inner_attn): FlashAttention()
                        (out_proj): Linear(in_features=8192, out_features=8192, bias=True)
                      )
                    )
                    (ln_2): LayerNorm((8192,), eps=1e-05, elementwise_affine=True)
                    (mlp): GPTMLP(
                      (mlp_up): Linear(in_features=8192, out_features=32768, bias=True)
                      (mlp_act): GELU(approximate='none')
                      (mlp_down): Linear(in_features=32768, out_features=8192, bias=True)
                    )
                    (resid_attn_dropout): Dropout(p=0.0, inplace=False)
                    (resid_mlp_dropout): Dropout(p=0.0, inplace=False)
                  )
                )
              )
            )
            (27): FullyShardedDataParallel(
              (_fsdp_wrapped_module): FlattenParamsWrapper(
                (_fpw_module): CheckpointWrapper(
                  (_checkpoint_wrapped_module): GPTBlock(
                    (ln_1): LayerNorm((8192,), eps=1e-05, elementwise_affine=True)
                    (causal_attn): FlashCausalAttention(
                      (mhsa): FlashMHA(
                        (Wqkv): Linear(in_features=8192, out_features=24576, bias=True)
                        (inner_attn): FlashAttention()
                        (out_proj): Linear(in_features=8192, out_features=8192, bias=True)
                      )
                    )
                    (ln_2): LayerNorm((8192,), eps=1e-05, elementwise_affine=True)
                    (mlp): GPTMLP(
                      (mlp_up): Linear(in_features=8192, out_features=32768, bias=True)
                      (mlp_act): GELU(approximate='none')
                      (mlp_down): Linear(in_features=32768, out_features=8192, bias=True)
                    )
                    (resid_attn_dropout): Dropout(p=0.0, inplace=False)
                    (resid_mlp_dropout): Dropout(p=0.0, inplace=False)
                  )
                )
              )
            )
            (28): FullyShardedDataParallel(
              (_fsdp_wrapped_module): FlattenParamsWrapper(
                (_fpw_module): CheckpointWrapper(
                  (_checkpoint_wrapped_module): GPTBlock(
                    (ln_1): LayerNorm((8192,), eps=1e-05, elementwise_affine=True)
                    (causal_attn): FlashCausalAttention(
                      (mhsa): FlashMHA(
                        (Wqkv): Linear(in_features=8192, out_features=24576, bias=True)
                        (inner_attn): FlashAttention()
                        (out_proj): Linear(in_features=8192, out_features=8192, bias=True)
                      )
                    )
                    (ln_2): LayerNorm((8192,), eps=1e-05, elementwise_affine=True)
                    (mlp): GPTMLP(
                      (mlp_up): Linear(in_features=8192, out_features=32768, bias=True)
                      (mlp_act): GELU(approximate='none')
                      (mlp_down): Linear(in_features=32768, out_features=8192, bias=True)
                    )
                    (resid_attn_dropout): Dropout(p=0.0, inplace=False)
                    (resid_mlp_dropout): Dropout(p=0.0, inplace=False)
                  )
                )
              )
            )
            (29): FullyShardedDataParallel(
              (_fsdp_wrapped_module): FlattenParamsWrapper(
                (_fpw_module): CheckpointWrapper(
                  (_checkpoint_wrapped_module): GPTBlock(
                    (ln_1): LayerNorm((8192,), eps=1e-05, elementwise_affine=True)
                    (causal_attn): FlashCausalAttention(
                      (mhsa): FlashMHA(
                        (Wqkv): Linear(in_features=8192, out_features=24576, bias=True)
                        (inner_attn): FlashAttention()
                        (out_proj): Linear(in_features=8192, out_features=8192, bias=True)
                      )
                    )
                    (ln_2): LayerNorm((8192,), eps=1e-05, elementwise_affine=True)
                    (mlp): GPTMLP(
                      (mlp_up): Linear(in_features=8192, out_features=32768, bias=True)
                      (mlp_act): GELU(approximate='none')
                      (mlp_down): Linear(in_features=32768, out_features=8192, bias=True)
                    )
                    (resid_attn_dropout): Dropout(p=0.0, inplace=False)
                    (resid_mlp_dropout): Dropout(p=0.0, inplace=False)
                  )
                )
              )
            )
            (30): FullyShardedDataParallel(
              (_fsdp_wrapped_module): FlattenParamsWrapper(
                (_fpw_module): CheckpointWrapper(
                  (_checkpoint_wrapped_module): GPTBlock(
                    (ln_1): LayerNorm((8192,), eps=1e-05, elementwise_affine=True)
                    (causal_attn): FlashCausalAttention(
                      (mhsa): FlashMHA(
                        (Wqkv): Linear(in_features=8192, out_features=24576, bias=True)
                        (inner_attn): FlashAttention()
                        (out_proj): Linear(in_features=8192, out_features=8192, bias=True)
                      )
                    )
                    (ln_2): LayerNorm((8192,), eps=1e-05, elementwise_affine=True)
                    (mlp): GPTMLP(
                      (mlp_up): Linear(in_features=8192, out_features=32768, bias=True)
                      (mlp_act): GELU(approximate='none')
                      (mlp_down): Linear(in_features=32768, out_features=8192, bias=True)
                    )
                    (resid_attn_dropout): Dropout(p=0.0, inplace=False)
                    (resid_mlp_dropout): Dropout(p=0.0, inplace=False)
                  )
                )
              )
            )
            (31): FullyShardedDataParallel(
              (_fsdp_wrapped_module): FlattenParamsWrapper(
                (_fpw_module): CheckpointWrapper(
                  (_checkpoint_wrapped_module): GPTBlock(
                    (ln_1): LayerNorm((8192,), eps=1e-05, elementwise_affine=True)
                    (causal_attn): FlashCausalAttention(
                      (mhsa): FlashMHA(
                        (Wqkv): Linear(in_features=8192, out_features=24576, bias=True)
                        (inner_attn): FlashAttention()
                        (out_proj): Linear(in_features=8192, out_features=8192, bias=True)
                      )
                    )
                    (ln_2): LayerNorm((8192,), eps=1e-05, elementwise_affine=True)
                    (mlp): GPTMLP(
                      (mlp_up): Linear(in_features=8192, out_features=32768, bias=True)
                      (mlp_act): GELU(approximate='none')
                      (mlp_down): Linear(in_features=32768, out_features=8192, bias=True)
                    )
                    (resid_attn_dropout): Dropout(p=0.0, inplace=False)
                    (resid_mlp_dropout): Dropout(p=0.0, inplace=False)
                  )
                )
              )
            )
            (32): FullyShardedDataParallel(
              (_fsdp_wrapped_module): FlattenParamsWrapper(
                (_fpw_module): CheckpointWrapper(
                  (_checkpoint_wrapped_module): GPTBlock(
                    (ln_1): LayerNorm((8192,), eps=1e-05, elementwise_affine=True)
                    (causal_attn): FlashCausalAttention(
                      (mhsa): FlashMHA(
                        (Wqkv): Linear(in_features=8192, out_features=24576, bias=True)
                        (inner_attn): FlashAttention()
                        (out_proj): Linear(in_features=8192, out_features=8192, bias=True)
                      )
                    )
                    (ln_2): LayerNorm((8192,), eps=1e-05, elementwise_affine=True)
                    (mlp): GPTMLP(
                      (mlp_up): Linear(in_features=8192, out_features=32768, bias=True)
                      (mlp_act): GELU(approximate='none')
                      (mlp_down): Linear(in_features=32768, out_features=8192, bias=True)
                    )
                    (resid_attn_dropout): Dropout(p=0.0, inplace=False)
                    (resid_mlp_dropout): Dropout(p=0.0, inplace=False)
                  )
                )
              )
            )
            (33): FullyShardedDataParallel(
              (_fsdp_wrapped_module): FlattenParamsWrapper(
                (_fpw_module): CheckpointWrapper(
                  (_checkpoint_wrapped_module): GPTBlock(
                    (ln_1): LayerNorm((8192,), eps=1e-05, elementwise_affine=True)
                    (causal_attn): FlashCausalAttention(
                      (mhsa): FlashMHA(
                        (Wqkv): Linear(in_features=8192, out_features=24576, bias=True)
                        (inner_attn): FlashAttention()
                        (out_proj): Linear(in_features=8192, out_features=8192, bias=True)
                      )
                    )
                    (ln_2): LayerNorm((8192,), eps=1e-05, elementwise_affine=True)
                    (mlp): GPTMLP(
                      (mlp_up): Linear(in_features=8192, out_features=32768, bias=True)
                      (mlp_act): GELU(approximate='none')
                      (mlp_down): Linear(in_features=32768, out_features=8192, bias=True)
                    )
                    (resid_attn_dropout): Dropout(p=0.0, inplace=False)
                    (resid_mlp_dropout): Dropout(p=0.0, inplace=False)
                  )
                )
              )
            )
            (34): FullyShardedDataParallel(
              (_fsdp_wrapped_module): FlattenParamsWrapper(
                (_fpw_module): CheckpointWrapper(
                  (_checkpoint_wrapped_module): GPTBlock(
                    (ln_1): LayerNorm((8192,), eps=1e-05, elementwise_affine=True)
                    (causal_attn): FlashCausalAttention(
                      (mhsa): FlashMHA(
                        (Wqkv): Linear(in_features=8192, out_features=24576, bias=True)
                        (inner_attn): FlashAttention()
                        (out_proj): Linear(in_features=8192, out_features=8192, bias=True)
                      )
                    )
                    (ln_2): LayerNorm((8192,), eps=1e-05, elementwise_affine=True)
                    (mlp): GPTMLP(
                      (mlp_up): Linear(in_features=8192, out_features=32768, bias=True)
                      (mlp_act): GELU(approximate='none')
                      (mlp_down): Linear(in_features=32768, out_features=8192, bias=True)
                    )
                    (resid_attn_dropout): Dropout(p=0.0, inplace=False)
                    (resid_mlp_dropout): Dropout(p=0.0, inplace=False)
                  )
                )
              )
            )
            (35): FullyShardedDataParallel(
              (_fsdp_wrapped_module): FlattenParamsWrapper(
                (_fpw_module): CheckpointWrapper(
                  (_checkpoint_wrapped_module): GPTBlock(
                    (ln_1): LayerNorm((8192,), eps=1e-05, elementwise_affine=True)
                    (causal_attn): FlashCausalAttention(
                      (mhsa): FlashMHA(
                        (Wqkv): Linear(in_features=8192, out_features=24576, bias=True)
                        (inner_attn): FlashAttention()
                        (out_proj): Linear(in_features=8192, out_features=8192, bias=True)
                      )
                    )
                    (ln_2): LayerNorm((8192,), eps=1e-05, elementwise_affine=True)
                    (mlp): GPTMLP(
                      (mlp_up): Linear(in_features=8192, out_features=32768, bias=True)
                      (mlp_act): GELU(approximate='none')
                      (mlp_down): Linear(in_features=32768, out_features=8192, bias=True)
                    )
                    (resid_attn_dropout): Dropout(p=0.0, inplace=False)
                    (resid_mlp_dropout): Dropout(p=0.0, inplace=False)
                  )
                )
              )
            )
            (36): FullyShardedDataParallel(
              (_fsdp_wrapped_module): FlattenParamsWrapper(
                (_fpw_module): CheckpointWrapper(
                  (_checkpoint_wrapped_module): GPTBlock(
                    (ln_1): LayerNorm((8192,), eps=1e-05, elementwise_affine=True)
                    (causal_attn): FlashCausalAttention(
                      (mhsa): FlashMHA(
                        (Wqkv): Linear(in_features=8192, out_features=24576, bias=True)
                        (inner_attn): FlashAttention()
                        (out_proj): Linear(in_features=8192, out_features=8192, bias=True)
                      )
                    )
                    (ln_2): LayerNorm((8192,), eps=1e-05, elementwise_affine=True)
                    (mlp): GPTMLP(
                      (mlp_up): Linear(in_features=8192, out_features=32768, bias=True)
                      (mlp_act): GELU(approximate='none')
                      (mlp_down): Linear(in_features=32768, out_features=8192, bias=True)
                    )
                    (resid_attn_dropout): Dropout(p=0.0, inplace=False)
                    (resid_mlp_dropout): Dropout(p=0.0, inplace=False)
                  )
                )
              )
            )
            (37): FullyShardedDataParallel(
              (_fsdp_wrapped_module): FlattenParamsWrapper(
                (_fpw_module): CheckpointWrapper(
                  (_checkpoint_wrapped_module): GPTBlock(
                    (ln_1): LayerNorm((8192,), eps=1e-05, elementwise_affine=True)
                    (causal_attn): FlashCausalAttention(
                      (mhsa): FlashMHA(
                        (Wqkv): Linear(in_features=8192, out_features=24576, bias=True)
                        (inner_attn): FlashAttention()
                        (out_proj): Linear(in_features=8192, out_features=8192, bias=True)
                      )
                    )
                    (ln_2): LayerNorm((8192,), eps=1e-05, elementwise_affine=True)
                    (mlp): GPTMLP(
                      (mlp_up): Linear(in_features=8192, out_features=32768, bias=True)
                      (mlp_act): GELU(approximate='none')
                      (mlp_down): Linear(in_features=32768, out_features=8192, bias=True)
                    )
                    (resid_attn_dropout): Dropout(p=0.0, inplace=False)
                    (resid_mlp_dropout): Dropout(p=0.0, inplace=False)
                  )
                )
              )
            )
            (38): FullyShardedDataParallel(
              (_fsdp_wrapped_module): FlattenParamsWrapper(
                (_fpw_module): CheckpointWrapper(
                  (_checkpoint_wrapped_module): GPTBlock(
                    (ln_1): LayerNorm((8192,), eps=1e-05, elementwise_affine=True)
                    (causal_attn): FlashCausalAttention(
                      (mhsa): FlashMHA(
                        (Wqkv): Linear(in_features=8192, out_features=24576, bias=True)
                        (inner_attn): FlashAttention()
                        (out_proj): Linear(in_features=8192, out_features=8192, bias=True)
                      )
                    )
                    (ln_2): LayerNorm((8192,), eps=1e-05, elementwise_affine=True)
                    (mlp): GPTMLP(
                      (mlp_up): Linear(in_features=8192, out_features=32768, bias=True)
                      (mlp_act): GELU(approximate='none')
                      (mlp_down): Linear(in_features=32768, out_features=8192, bias=True)
                    )
                    (resid_attn_dropout): Dropout(p=0.0, inplace=False)
                    (resid_mlp_dropout): Dropout(p=0.0, inplace=False)
                  )
                )
              )
            )
            (39): FullyShardedDataParallel(
              (_fsdp_wrapped_module): FlattenParamsWrapper(
                (_fpw_module): CheckpointWrapper(
                  (_checkpoint_wrapped_module): GPTBlock(
                    (ln_1): LayerNorm((8192,), eps=1e-05, elementwise_affine=True)
                    (causal_attn): FlashCausalAttention(
                      (mhsa): FlashMHA(
                        (Wqkv): Linear(in_features=8192, out_features=24576, bias=True)
                        (inner_attn): FlashAttention()
                        (out_proj): Linear(in_features=8192, out_features=8192, bias=True)
                      )
                    )
                    (ln_2): LayerNorm((8192,), eps=1e-05, elementwise_affine=True)
                    (mlp): GPTMLP(
                      (mlp_up): Linear(in_features=8192, out_features=32768, bias=True)
                      (mlp_act): GELU(approximate='none')
                      (mlp_down): Linear(in_features=32768, out_features=8192, bias=True)
                    )
                    (resid_attn_dropout): Dropout(p=0.0, inplace=False)
                    (resid_mlp_dropout): Dropout(p=0.0, inplace=False)
                  )
                )
              )
            )
            (40): FullyShardedDataParallel(
              (_fsdp_wrapped_module): FlattenParamsWrapper(
                (_fpw_module): CheckpointWrapper(
                  (_checkpoint_wrapped_module): GPTBlock(
                    (ln_1): LayerNorm((8192,), eps=1e-05, elementwise_affine=True)
                    (causal_attn): FlashCausalAttention(
                      (mhsa): FlashMHA(
                        (Wqkv): Linear(in_features=8192, out_features=24576, bias=True)
                        (inner_attn): FlashAttention()
                        (out_proj): Linear(in_features=8192, out_features=8192, bias=True)
                      )
                    )
                    (ln_2): LayerNorm((8192,), eps=1e-05, elementwise_affine=True)
                    (mlp): GPTMLP(
                      (mlp_up): Linear(in_features=8192, out_features=32768, bias=True)
                      (mlp_act): GELU(approximate='none')
                      (mlp_down): Linear(in_features=32768, out_features=8192, bias=True)
                    )
                    (resid_attn_dropout): Dropout(p=0.0, inplace=False)
                    (resid_mlp_dropout): Dropout(p=0.0, inplace=False)
                  )
                )
              )
            )
            (41): FullyShardedDataParallel(
              (_fsdp_wrapped_module): FlattenParamsWrapper(
                (_fpw_module): CheckpointWrapper(
                  (_checkpoint_wrapped_module): GPTBlock(
                    (ln_1): LayerNorm((8192,), eps=1e-05, elementwise_affine=True)
                    (causal_attn): FlashCausalAttention(
                      (mhsa): FlashMHA(
                        (Wqkv): Linear(in_features=8192, out_features=24576, bias=True)
                        (inner_attn): FlashAttention()
                        (out_proj): Linear(in_features=8192, out_features=8192, bias=True)
                      )
                    )
                    (ln_2): LayerNorm((8192,), eps=1e-05, elementwise_affine=True)
                    (mlp): GPTMLP(
                      (mlp_up): Linear(in_features=8192, out_features=32768, bias=True)
                      (mlp_act): GELU(approximate='none')
                      (mlp_down): Linear(in_features=32768, out_features=8192, bias=True)
                    )
                    (resid_attn_dropout): Dropout(p=0.0, inplace=False)
                    (resid_mlp_dropout): Dropout(p=0.0, inplace=False)
                  )
                )
              )
            )
            (42): FullyShardedDataParallel(
              (_fsdp_wrapped_module): FlattenParamsWrapper(
                (_fpw_module): CheckpointWrapper(
                  (_checkpoint_wrapped_module): GPTBlock(
                    (ln_1): LayerNorm((8192,), eps=1e-05, elementwise_affine=True)
                    (causal_attn): FlashCausalAttention(
                      (mhsa): FlashMHA(
                        (Wqkv): Linear(in_features=8192, out_features=24576, bias=True)
                        (inner_attn): FlashAttention()
                        (out_proj): Linear(in_features=8192, out_features=8192, bias=True)
                      )
                    )
                    (ln_2): LayerNorm((8192,), eps=1e-05, elementwise_affine=True)
                    (mlp): GPTMLP(
                      (mlp_up): Linear(in_features=8192, out_features=32768, bias=True)
                      (mlp_act): GELU(approximate='none')
                      (mlp_down): Linear(in_features=32768, out_features=8192, bias=True)
                    )
                    (resid_attn_dropout): Dropout(p=0.0, inplace=False)
                    (resid_mlp_dropout): Dropout(p=0.0, inplace=False)
                  )
                )
              )
            )
            (43): FullyShardedDataParallel(
              (_fsdp_wrapped_module): FlattenParamsWrapper(
                (_fpw_module): CheckpointWrapper(
                  (_checkpoint_wrapped_module): GPTBlock(
                    (ln_1): LayerNorm((8192,), eps=1e-05, elementwise_affine=True)
                    (causal_attn): FlashCausalAttention(
                      (mhsa): FlashMHA(
                        (Wqkv): Linear(in_features=8192, out_features=24576, bias=True)
                        (inner_attn): FlashAttention()
                        (out_proj): Linear(in_features=8192, out_features=8192, bias=True)
                      )
                    )
                    (ln_2): LayerNorm((8192,), eps=1e-05, elementwise_affine=True)
                    (mlp): GPTMLP(
                      (mlp_up): Linear(in_features=8192, out_features=32768, bias=True)
                      (mlp_act): GELU(approximate='none')
                      (mlp_down): Linear(in_features=32768, out_features=8192, bias=True)
                    )
                    (resid_attn_dropout): Dropout(p=0.0, inplace=False)
                    (resid_mlp_dropout): Dropout(p=0.0, inplace=False)
                  )
                )
              )
            )
            (44): FullyShardedDataParallel(
              (_fsdp_wrapped_module): FlattenParamsWrapper(
                (_fpw_module): CheckpointWrapper(
                  (_checkpoint_wrapped_module): GPTBlock(
                    (ln_1): LayerNorm((8192,), eps=1e-05, elementwise_affine=True)
                    (causal_attn): FlashCausalAttention(
                      (mhsa): FlashMHA(
                        (Wqkv): Linear(in_features=8192, out_features=24576, bias=True)
                        (inner_attn): FlashAttention()
                        (out_proj): Linear(in_features=8192, out_features=8192, bias=True)
                      )
                    )
                    (ln_2): LayerNorm((8192,), eps=1e-05, elementwise_affine=True)
                    (mlp): GPTMLP(
                      (mlp_up): Linear(in_features=8192, out_features=32768, bias=True)
                      (mlp_act): GELU(approximate='none')
                      (mlp_down): Linear(in_features=32768, out_features=8192, bias=True)
                    )
                    (resid_attn_dropout): Dropout(p=0.0, inplace=False)
                    (resid_mlp_dropout): Dropout(p=0.0, inplace=False)
                  )
                )
              )
            )
            (45): FullyShardedDataParallel(
              (_fsdp_wrapped_module): FlattenParamsWrapper(
                (_fpw_module): CheckpointWrapper(
                  (_checkpoint_wrapped_module): GPTBlock(
                    (ln_1): LayerNorm((8192,), eps=1e-05, elementwise_affine=True)
                    (causal_attn): FlashCausalAttention(
                      (mhsa): FlashMHA(
                        (Wqkv): Linear(in_features=8192, out_features=24576, bias=True)
                        (inner_attn): FlashAttention()
                        (out_proj): Linear(in_features=8192, out_features=8192, bias=True)
                      )
                    )
                    (ln_2): LayerNorm((8192,), eps=1e-05, elementwise_affine=True)
                    (mlp): GPTMLP(
                      (mlp_up): Linear(in_features=8192, out_features=32768, bias=True)
                      (mlp_act): GELU(approximate='none')
                      (mlp_down): Linear(in_features=32768, out_features=8192, bias=True)
                    )
                    (resid_attn_dropout): Dropout(p=0.0, inplace=False)
                    (resid_mlp_dropout): Dropout(p=0.0, inplace=False)
                  )
                )
              )
            )
            (46): FullyShardedDataParallel(
              (_fsdp_wrapped_module): FlattenParamsWrapper(
                (_fpw_module): CheckpointWrapper(
                  (_checkpoint_wrapped_module): GPTBlock(
                    (ln_1): LayerNorm((8192,), eps=1e-05, elementwise_affine=True)
                    (causal_attn): FlashCausalAttention(
                      (mhsa): FlashMHA(
                        (Wqkv): Linear(in_features=8192, out_features=24576, bias=True)
                        (inner_attn): FlashAttention()
                        (out_proj): Linear(in_features=8192, out_features=8192, bias=True)
                      )
                    )
                    (ln_2): LayerNorm((8192,), eps=1e-05, elementwise_affine=True)
                    (mlp): GPTMLP(
                      (mlp_up): Linear(in_features=8192, out_features=32768, bias=True)
                      (mlp_act): GELU(approximate='none')
                      (mlp_down): Linear(in_features=32768, out_features=8192, bias=True)
                    )
                    (resid_attn_dropout): Dropout(p=0.0, inplace=False)
                    (resid_mlp_dropout): Dropout(p=0.0, inplace=False)
                  )
                )
              )
            )
            (47): FullyShardedDataParallel(
              (_fsdp_wrapped_module): FlattenParamsWrapper(
                (_fpw_module): CheckpointWrapper(
                  (_checkpoint_wrapped_module): GPTBlock(
                    (ln_1): LayerNorm((8192,), eps=1e-05, elementwise_affine=True)
                    (causal_attn): FlashCausalAttention(
                      (mhsa): FlashMHA(
                        (Wqkv): Linear(in_features=8192, out_features=24576, bias=True)
                        (inner_attn): FlashAttention()
                        (out_proj): Linear(in_features=8192, out_features=8192, bias=True)
                      )
                    )
                    (ln_2): LayerNorm((8192,), eps=1e-05, elementwise_affine=True)
                    (mlp): GPTMLP(
                      (mlp_up): Linear(in_features=8192, out_features=32768, bias=True)
                      (mlp_act): GELU(approximate='none')
                      (mlp_down): Linear(in_features=32768, out_features=8192, bias=True)
                    )
                    (resid_attn_dropout): Dropout(p=0.0, inplace=False)
                    (resid_mlp_dropout): Dropout(p=0.0, inplace=False)
                  )
                )
              )
            )
            (48): FullyShardedDataParallel(
              (_fsdp_wrapped_module): FlattenParamsWrapper(
                (_fpw_module): CheckpointWrapper(
                  (_checkpoint_wrapped_module): GPTBlock(
                    (ln_1): LayerNorm((8192,), eps=1e-05, elementwise_affine=True)
                    (causal_attn): FlashCausalAttention(
                      (mhsa): FlashMHA(
                        (Wqkv): Linear(in_features=8192, out_features=24576, bias=True)
                        (inner_attn): FlashAttention()
                        (out_proj): Linear(in_features=8192, out_features=8192, bias=True)
                      )
                    )
                    (ln_2): LayerNorm((8192,), eps=1e-05, elementwise_affine=True)
                    (mlp): GPTMLP(
                      (mlp_up): Linear(in_features=8192, out_features=32768, bias=True)
                      (mlp_act): GELU(approximate='none')
                      (mlp_down): Linear(in_features=32768, out_features=8192, bias=True)
                    )
                    (resid_attn_dropout): Dropout(p=0.0, inplace=False)
                    (resid_mlp_dropout): Dropout(p=0.0, inplace=False)
                  )
                )
              )
            )
            (49): FullyShardedDataParallel(
              (_fsdp_wrapped_module): FlattenParamsWrapper(
                (_fpw_module): CheckpointWrapper(
                  (_checkpoint_wrapped_module): GPTBlock(
                    (ln_1): LayerNorm((8192,), eps=1e-05, elementwise_affine=True)
                    (causal_attn): FlashCausalAttention(
                      (mhsa): FlashMHA(
                        (Wqkv): Linear(in_features=8192, out_features=24576, bias=True)
                        (inner_attn): FlashAttention()
                        (out_proj): Linear(in_features=8192, out_features=8192, bias=True)
                      )
                    )
                    (ln_2): LayerNorm((8192,), eps=1e-05, elementwise_affine=True)
                    (mlp): GPTMLP(
                      (mlp_up): Linear(in_features=8192, out_features=32768, bias=True)
                      (mlp_act): GELU(approximate='none')
                      (mlp_down): Linear(in_features=32768, out_features=8192, bias=True)
                    )
                    (resid_attn_dropout): Dropout(p=0.0, inplace=False)
                    (resid_mlp_dropout): Dropout(p=0.0, inplace=False)
                  )
                )
              )
            )
            (50): FullyShardedDataParallel(
              (_fsdp_wrapped_module): FlattenParamsWrapper(
                (_fpw_module): CheckpointWrapper(
                  (_checkpoint_wrapped_module): GPTBlock(
                    (ln_1): LayerNorm((8192,), eps=1e-05, elementwise_affine=True)
                    (causal_attn): FlashCausalAttention(
                      (mhsa): FlashMHA(
                        (Wqkv): Linear(in_features=8192, out_features=24576, bias=True)
                        (inner_attn): FlashAttention()
                        (out_proj): Linear(in_features=8192, out_features=8192, bias=True)
                      )
                    )
                    (ln_2): LayerNorm((8192,), eps=1e-05, elementwise_affine=True)
                    (mlp): GPTMLP(
                      (mlp_up): Linear(in_features=8192, out_features=32768, bias=True)
                      (mlp_act): GELU(approximate='none')
                      (mlp_down): Linear(in_features=32768, out_features=8192, bias=True)
                    )
                    (resid_attn_dropout): Dropout(p=0.0, inplace=False)
                    (resid_mlp_dropout): Dropout(p=0.0, inplace=False)
                  )
                )
              )
            )
            (51): FullyShardedDataParallel(
              (_fsdp_wrapped_module): FlattenParamsWrapper(
                (_fpw_module): CheckpointWrapper(
                  (_checkpoint_wrapped_module): GPTBlock(
                    (ln_1): LayerNorm((8192,), eps=1e-05, elementwise_affine=True)
                    (causal_attn): FlashCausalAttention(
                      (mhsa): FlashMHA(
                        (Wqkv): Linear(in_features=8192, out_features=24576, bias=True)
                        (inner_attn): FlashAttention()
                        (out_proj): Linear(in_features=8192, out_features=8192, bias=True)
                      )
                    )
                    (ln_2): LayerNorm((8192,), eps=1e-05, elementwise_affine=True)
                    (mlp): GPTMLP(
                      (mlp_up): Linear(in_features=8192, out_features=32768, bias=True)
                      (mlp_act): GELU(approximate='none')
                      (mlp_down): Linear(in_features=32768, out_features=8192, bias=True)
                    )
                    (resid_attn_dropout): Dropout(p=0.0, inplace=False)
                    (resid_mlp_dropout): Dropout(p=0.0, inplace=False)
                  )
                )
              )
            )
            (52): FullyShardedDataParallel(
              (_fsdp_wrapped_module): FlattenParamsWrapper(
                (_fpw_module): CheckpointWrapper(
                  (_checkpoint_wrapped_module): GPTBlock(
                    (ln_1): LayerNorm((8192,), eps=1e-05, elementwise_affine=True)
                    (causal_attn): FlashCausalAttention(
                      (mhsa): FlashMHA(
                        (Wqkv): Linear(in_features=8192, out_features=24576, bias=True)
                        (inner_attn): FlashAttention()
                        (out_proj): Linear(in_features=8192, out_features=8192, bias=True)
                      )
                    )
                    (ln_2): LayerNorm((8192,), eps=1e-05, elementwise_affine=True)
                    (mlp): GPTMLP(
                      (mlp_up): Linear(in_features=8192, out_features=32768, bias=True)
                      (mlp_act): GELU(approximate='none')
                      (mlp_down): Linear(in_features=32768, out_features=8192, bias=True)
                    )
                    (resid_attn_dropout): Dropout(p=0.0, inplace=False)
                    (resid_mlp_dropout): Dropout(p=0.0, inplace=False)
                  )
                )
              )
            )
            (53): FullyShardedDataParallel(
              (_fsdp_wrapped_module): FlattenParamsWrapper(
                (_fpw_module): CheckpointWrapper(
                  (_checkpoint_wrapped_module): GPTBlock(
                    (ln_1): LayerNorm((8192,), eps=1e-05, elementwise_affine=True)
                    (causal_attn): FlashCausalAttention(
                      (mhsa): FlashMHA(
                        (Wqkv): Linear(in_features=8192, out_features=24576, bias=True)
                        (inner_attn): FlashAttention()
                        (out_proj): Linear(in_features=8192, out_features=8192, bias=True)
                      )
                    )
                    (ln_2): LayerNorm((8192,), eps=1e-05, elementwise_affine=True)
                    (mlp): GPTMLP(
                      (mlp_up): Linear(in_features=8192, out_features=32768, bias=True)
                      (mlp_act): GELU(approximate='none')
                      (mlp_down): Linear(in_features=32768, out_features=8192, bias=True)
                    )
                    (resid_attn_dropout): Dropout(p=0.0, inplace=False)
                    (resid_mlp_dropout): Dropout(p=0.0, inplace=False)
                  )
                )
              )
            )
            (54): FullyShardedDataParallel(
              (_fsdp_wrapped_module): FlattenParamsWrapper(
                (_fpw_module): CheckpointWrapper(
                  (_checkpoint_wrapped_module): GPTBlock(
                    (ln_1): LayerNorm((8192,), eps=1e-05, elementwise_affine=True)
                    (causal_attn): FlashCausalAttention(
                      (mhsa): FlashMHA(
                        (Wqkv): Linear(in_features=8192, out_features=24576, bias=True)
                        (inner_attn): FlashAttention()
                        (out_proj): Linear(in_features=8192, out_features=8192, bias=True)
                      )
                    )
                    (ln_2): LayerNorm((8192,), eps=1e-05, elementwise_affine=True)
                    (mlp): GPTMLP(
                      (mlp_up): Linear(in_features=8192, out_features=32768, bias=True)
                      (mlp_act): GELU(approximate='none')
                      (mlp_down): Linear(in_features=32768, out_features=8192, bias=True)
                    )
                    (resid_attn_dropout): Dropout(p=0.0, inplace=False)
                    (resid_mlp_dropout): Dropout(p=0.0, inplace=False)
                  )
                )
              )
            )
            (55): FullyShardedDataParallel(
              (_fsdp_wrapped_module): FlattenParamsWrapper(
                (_fpw_module): CheckpointWrapper(
                  (_checkpoint_wrapped_module): GPTBlock(
                    (ln_1): LayerNorm((8192,), eps=1e-05, elementwise_affine=True)
                    (causal_attn): FlashCausalAttention(
                      (mhsa): FlashMHA(
                        (Wqkv): Linear(in_features=8192, out_features=24576, bias=True)
                        (inner_attn): FlashAttention()
                        (out_proj): Linear(in_features=8192, out_features=8192, bias=True)
                      )
                    )
                    (ln_2): LayerNorm((8192,), eps=1e-05, elementwise_affine=True)
                    (mlp): GPTMLP(
                      (mlp_up): Linear(in_features=8192, out_features=32768, bias=True)
                      (mlp_act): GELU(approximate='none')
                      (mlp_down): Linear(in_features=32768, out_features=8192, bias=True)
                    )
                    (resid_attn_dropout): Dropout(p=0.0, inplace=False)
                    (resid_mlp_dropout): Dropout(p=0.0, inplace=False)
                  )
                )
              )
            )
            (56): FullyShardedDataParallel(
              (_fsdp_wrapped_module): FlattenParamsWrapper(
                (_fpw_module): CheckpointWrapper(
                  (_checkpoint_wrapped_module): GPTBlock(
                    (ln_1): LayerNorm((8192,), eps=1e-05, elementwise_affine=True)
                    (causal_attn): FlashCausalAttention(
                      (mhsa): FlashMHA(
                        (Wqkv): Linear(in_features=8192, out_features=24576, bias=True)
                        (inner_attn): FlashAttention()
                        (out_proj): Linear(in_features=8192, out_features=8192, bias=True)
                      )
                    )
                    (ln_2): LayerNorm((8192,), eps=1e-05, elementwise_affine=True)
                    (mlp): GPTMLP(
                      (mlp_up): Linear(in_features=8192, out_features=32768, bias=True)
                      (mlp_act): GELU(approximate='none')
                      (mlp_down): Linear(in_features=32768, out_features=8192, bias=True)
                    )
                    (resid_attn_dropout): Dropout(p=0.0, inplace=False)
                    (resid_mlp_dropout): Dropout(p=0.0, inplace=False)
                  )
                )
              )
            )
            (57): FullyShardedDataParallel(
              (_fsdp_wrapped_module): FlattenParamsWrapper(
                (_fpw_module): CheckpointWrapper(
                  (_checkpoint_wrapped_module): GPTBlock(
                    (ln_1): LayerNorm((8192,), eps=1e-05, elementwise_affine=True)
                    (causal_attn): FlashCausalAttention(
                      (mhsa): FlashMHA(
                        (Wqkv): Linear(in_features=8192, out_features=24576, bias=True)
                        (inner_attn): FlashAttention()
                        (out_proj): Linear(in_features=8192, out_features=8192, bias=True)
                      )
                    )
                    (ln_2): LayerNorm((8192,), eps=1e-05, elementwise_affine=True)
                    (mlp): GPTMLP(
                      (mlp_up): Linear(in_features=8192, out_features=32768, bias=True)
                      (mlp_act): GELU(approximate='none')
                      (mlp_down): Linear(in_features=32768, out_features=8192, bias=True)
                    )
                    (resid_attn_dropout): Dropout(p=0.0, inplace=False)
                    (resid_mlp_dropout): Dropout(p=0.0, inplace=False)
                  )
                )
              )
            )
            (58): FullyShardedDataParallel(
              (_fsdp_wrapped_module): FlattenParamsWrapper(
                (_fpw_module): CheckpointWrapper(
                  (_checkpoint_wrapped_module): GPTBlock(
                    (ln_1): LayerNorm((8192,), eps=1e-05, elementwise_affine=True)
                    (causal_attn): FlashCausalAttention(
                      (mhsa): FlashMHA(
                        (Wqkv): Linear(in_features=8192, out_features=24576, bias=True)
                        (inner_attn): FlashAttention()
                        (out_proj): Linear(in_features=8192, out_features=8192, bias=True)
                      )
                    )
                    (ln_2): LayerNorm((8192,), eps=1e-05, elementwise_affine=True)
                    (mlp): GPTMLP(
                      (mlp_up): Linear(in_features=8192, out_features=32768, bias=True)
                      (mlp_act): GELU(approximate='none')
                      (mlp_down): Linear(in_features=32768, out_features=8192, bias=True)
                    )
                    (resid_attn_dropout): Dropout(p=0.0, inplace=False)
                    (resid_mlp_dropout): Dropout(p=0.0, inplace=False)
                  )
                )
              )
            )
            (59): FullyShardedDataParallel(
              (_fsdp_wrapped_module): FlattenParamsWrapper(
                (_fpw_module): CheckpointWrapper(
                  (_checkpoint_wrapped_module): GPTBlock(
                    (ln_1): LayerNorm((8192,), eps=1e-05, elementwise_affine=True)
                    (causal_attn): FlashCausalAttention(
                      (mhsa): FlashMHA(
                        (Wqkv): Linear(in_features=8192, out_features=24576, bias=True)
                        (inner_attn): FlashAttention()
                        (out_proj): Linear(in_features=8192, out_features=8192, bias=True)
                      )
                    )
                    (ln_2): LayerNorm((8192,), eps=1e-05, elementwise_affine=True)
                    (mlp): GPTMLP(
                      (mlp_up): Linear(in_features=8192, out_features=32768, bias=True)
                      (mlp_act): GELU(approximate='none')
                      (mlp_down): Linear(in_features=32768, out_features=8192, bias=True)
                    )
                    (resid_attn_dropout): Dropout(p=0.0, inplace=False)
                    (resid_mlp_dropout): Dropout(p=0.0, inplace=False)
                  )
                )
              )
            )
            (60): FullyShardedDataParallel(
              (_fsdp_wrapped_module): FlattenParamsWrapper(
                (_fpw_module): CheckpointWrapper(
                  (_checkpoint_wrapped_module): GPTBlock(
                    (ln_1): LayerNorm((8192,), eps=1e-05, elementwise_affine=True)
                    (causal_attn): FlashCausalAttention(
                      (mhsa): FlashMHA(
                        (Wqkv): Linear(in_features=8192, out_features=24576, bias=True)
                        (inner_attn): FlashAttention()
                        (out_proj): Linear(in_features=8192, out_features=8192, bias=True)
                      )
                    )
                    (ln_2): LayerNorm((8192,), eps=1e-05, elementwise_affine=True)
                    (mlp): GPTMLP(
                      (mlp_up): Linear(in_features=8192, out_features=32768, bias=True)
                      (mlp_act): GELU(approximate='none')
                      (mlp_down): Linear(in_features=32768, out_features=8192, bias=True)
                    )
                    (resid_attn_dropout): Dropout(p=0.0, inplace=False)
                    (resid_mlp_dropout): Dropout(p=0.0, inplace=False)
                  )
                )
              )
            )
            (61): FullyShardedDataParallel(
              (_fsdp_wrapped_module): FlattenParamsWrapper(
                (_fpw_module): CheckpointWrapper(
                  (_checkpoint_wrapped_module): GPTBlock(
                    (ln_1): LayerNorm((8192,), eps=1e-05, elementwise_affine=True)
                    (causal_attn): FlashCausalAttention(
                      (mhsa): FlashMHA(
                        (Wqkv): Linear(in_features=8192, out_features=24576, bias=True)
                        (inner_attn): FlashAttention()
                        (out_proj): Linear(in_features=8192, out_features=8192, bias=True)
                      )
                    )
                    (ln_2): LayerNorm((8192,), eps=1e-05, elementwise_affine=True)
                    (mlp): GPTMLP(
                      (mlp_up): Linear(in_features=8192, out_features=32768, bias=True)
                      (mlp_act): GELU(approximate='none')
                      (mlp_down): Linear(in_features=32768, out_features=8192, bias=True)
                    )
                    (resid_attn_dropout): Dropout(p=0.0, inplace=False)
                    (resid_mlp_dropout): Dropout(p=0.0, inplace=False)
                  )
                )
              )
            )
            (62): FullyShardedDataParallel(
              (_fsdp_wrapped_module): FlattenParamsWrapper(
                (_fpw_module): CheckpointWrapper(
                  (_checkpoint_wrapped_module): GPTBlock(
                    (ln_1): LayerNorm((8192,), eps=1e-05, elementwise_affine=True)
                    (causal_attn): FlashCausalAttention(
                      (mhsa): FlashMHA(
                        (Wqkv): Linear(in_features=8192, out_features=24576, bias=True)
                        (inner_attn): FlashAttention()
                        (out_proj): Linear(in_features=8192, out_features=8192, bias=True)
                      )
                    )
                    (ln_2): LayerNorm((8192,), eps=1e-05, elementwise_affine=True)
                    (mlp): GPTMLP(
                      (mlp_up): Linear(in_features=8192, out_features=32768, bias=True)
                      (mlp_act): GELU(approximate='none')
                      (mlp_down): Linear(in_features=32768, out_features=8192, bias=True)
                    )
                    (resid_attn_dropout): Dropout(p=0.0, inplace=False)
                    (resid_mlp_dropout): Dropout(p=0.0, inplace=False)
                  )
                )
              )
            )
            (63): FullyShardedDataParallel(
              (_fsdp_wrapped_module): FlattenParamsWrapper(
                (_fpw_module): CheckpointWrapper(
                  (_checkpoint_wrapped_module): GPTBlock(
                    (ln_1): LayerNorm((8192,), eps=1e-05, elementwise_affine=True)
                    (causal_attn): FlashCausalAttention(
                      (mhsa): FlashMHA(
                        (Wqkv): Linear(in_features=8192, out_features=24576, bias=True)
                        (inner_attn): FlashAttention()
                        (out_proj): Linear(in_features=8192, out_features=8192, bias=True)
                      )
                    )
                    (ln_2): LayerNorm((8192,), eps=1e-05, elementwise_affine=True)
                    (mlp): GPTMLP(
                      (mlp_up): Linear(in_features=8192, out_features=32768, bias=True)
                      (mlp_act): GELU(approximate='none')
                      (mlp_down): Linear(in_features=32768, out_features=8192, bias=True)
                    )
                    (resid_attn_dropout): Dropout(p=0.0, inplace=False)
                    (resid_mlp_dropout): Dropout(p=0.0, inplace=False)
                  )
                )
              )
            )
            (64): FullyShardedDataParallel(
              (_fsdp_wrapped_module): FlattenParamsWrapper(
                (_fpw_module): CheckpointWrapper(
                  (_checkpoint_wrapped_module): GPTBlock(
                    (ln_1): LayerNorm((8192,), eps=1e-05, elementwise_affine=True)
                    (causal_attn): FlashCausalAttention(
                      (mhsa): FlashMHA(
                        (Wqkv): Linear(in_features=8192, out_features=24576, bias=True)
                        (inner_attn): FlashAttention()
                        (out_proj): Linear(in_features=8192, out_features=8192, bias=True)
                      )
                    )
                    (ln_2): LayerNorm((8192,), eps=1e-05, elementwise_affine=True)
                    (mlp): GPTMLP(
                      (mlp_up): Linear(in_features=8192, out_features=32768, bias=True)
                      (mlp_act): GELU(approximate='none')
                      (mlp_down): Linear(in_features=32768, out_features=8192, bias=True)
                    )
                    (resid_attn_dropout): Dropout(p=0.0, inplace=False)
                    (resid_mlp_dropout): Dropout(p=0.0, inplace=False)
                  )
                )
              )
            )
            (65): FullyShardedDataParallel(
              (_fsdp_wrapped_module): FlattenParamsWrapper(
                (_fpw_module): CheckpointWrapper(
                  (_checkpoint_wrapped_module): GPTBlock(
                    (ln_1): LayerNorm((8192,), eps=1e-05, elementwise_affine=True)
                    (causal_attn): FlashCausalAttention(
                      (mhsa): FlashMHA(
                        (Wqkv): Linear(in_features=8192, out_features=24576, bias=True)
                        (inner_attn): FlashAttention()
                        (out_proj): Linear(in_features=8192, out_features=8192, bias=True)
                      )
                    )
                    (ln_2): LayerNorm((8192,), eps=1e-05, elementwise_affine=True)
                    (mlp): GPTMLP(
                      (mlp_up): Linear(in_features=8192, out_features=32768, bias=True)
                      (mlp_act): GELU(approximate='none')
                      (mlp_down): Linear(in_features=32768, out_features=8192, bias=True)
                    )
                    (resid_attn_dropout): Dropout(p=0.0, inplace=False)
                    (resid_mlp_dropout): Dropout(p=0.0, inplace=False)
                  )
                )
              )
            )
            (66): FullyShardedDataParallel(
              (_fsdp_wrapped_module): FlattenParamsWrapper(
                (_fpw_module): CheckpointWrapper(
                  (_checkpoint_wrapped_module): GPTBlock(
                    (ln_1): LayerNorm((8192,), eps=1e-05, elementwise_affine=True)
                    (causal_attn): FlashCausalAttention(
                      (mhsa): FlashMHA(
                        (Wqkv): Linear(in_features=8192, out_features=24576, bias=True)
                        (inner_attn): FlashAttention()
                        (out_proj): Linear(in_features=8192, out_features=8192, bias=True)
                      )
                    )
                    (ln_2): LayerNorm((8192,), eps=1e-05, elementwise_affine=True)
                    (mlp): GPTMLP(
                      (mlp_up): Linear(in_features=8192, out_features=32768, bias=True)
                      (mlp_act): GELU(approximate='none')
                      (mlp_down): Linear(in_features=32768, out_features=8192, bias=True)
                    )
                    (resid_attn_dropout): Dropout(p=0.0, inplace=False)
                    (resid_mlp_dropout): Dropout(p=0.0, inplace=False)
                  )
                )
              )
            )
            (67): FullyShardedDataParallel(
              (_fsdp_wrapped_module): FlattenParamsWrapper(
                (_fpw_module): CheckpointWrapper(
                  (_checkpoint_wrapped_module): GPTBlock(
                    (ln_1): LayerNorm((8192,), eps=1e-05, elementwise_affine=True)
                    (causal_attn): FlashCausalAttention(
                      (mhsa): FlashMHA(
                        (Wqkv): Linear(in_features=8192, out_features=24576, bias=True)
                        (inner_attn): FlashAttention()
                        (out_proj): Linear(in_features=8192, out_features=8192, bias=True)
                      )
                    )
                    (ln_2): LayerNorm((8192,), eps=1e-05, elementwise_affine=True)
                    (mlp): GPTMLP(
                      (mlp_up): Linear(in_features=8192, out_features=32768, bias=True)
                      (mlp_act): GELU(approximate='none')
                      (mlp_down): Linear(in_features=32768, out_features=8192, bias=True)
                    )
                    (resid_attn_dropout): Dropout(p=0.0, inplace=False)
                    (resid_mlp_dropout): Dropout(p=0.0, inplace=False)
                  )
                )
              )
            )
            (68): FullyShardedDataParallel(
              (_fsdp_wrapped_module): FlattenParamsWrapper(
                (_fpw_module): CheckpointWrapper(
                  (_checkpoint_wrapped_module): GPTBlock(
                    (ln_1): LayerNorm((8192,), eps=1e-05, elementwise_affine=True)
                    (causal_attn): FlashCausalAttention(
                      (mhsa): FlashMHA(
                        (Wqkv): Linear(in_features=8192, out_features=24576, bias=True)
                        (inner_attn): FlashAttention()
                        (out_proj): Linear(in_features=8192, out_features=8192, bias=True)
                      )
                    )
                    (ln_2): LayerNorm((8192,), eps=1e-05, elementwise_affine=True)
                    (mlp): GPTMLP(
                      (mlp_up): Linear(in_features=8192, out_features=32768, bias=True)
                      (mlp_act): GELU(approximate='none')
                      (mlp_down): Linear(in_features=32768, out_features=8192, bias=True)
                    )
                    (resid_attn_dropout): Dropout(p=0.0, inplace=False)
                    (resid_mlp_dropout): Dropout(p=0.0, inplace=False)
                  )
                )
              )
            )
            (69): FullyShardedDataParallel(
              (_fsdp_wrapped_module): FlattenParamsWrapper(
                (_fpw_module): CheckpointWrapper(
                  (_checkpoint_wrapped_module): GPTBlock(
                    (ln_1): LayerNorm((8192,), eps=1e-05, elementwise_affine=True)
                    (causal_attn): FlashCausalAttention(
                      (mhsa): FlashMHA(
                        (Wqkv): Linear(in_features=8192, out_features=24576, bias=True)
                        (inner_attn): FlashAttention()
                        (out_proj): Linear(in_features=8192, out_features=8192, bias=True)
                      )
                    )
                    (ln_2): LayerNorm((8192,), eps=1e-05, elementwise_affine=True)
                    (mlp): GPTMLP(
                      (mlp_up): Linear(in_features=8192, out_features=32768, bias=True)
                      (mlp_act): GELU(approximate='none')
                      (mlp_down): Linear(in_features=32768, out_features=8192, bias=True)
                    )
                    (resid_attn_dropout): Dropout(p=0.0, inplace=False)
                    (resid_mlp_dropout): Dropout(p=0.0, inplace=False)
                  )
                )
              )
            )
            (70): FullyShardedDataParallel(
              (_fsdp_wrapped_module): FlattenParamsWrapper(
                (_fpw_module): CheckpointWrapper(
                  (_checkpoint_wrapped_module): GPTBlock(
                    (ln_1): LayerNorm((8192,), eps=1e-05, elementwise_affine=True)
                    (causal_attn): FlashCausalAttention(
                      (mhsa): FlashMHA(
                        (Wqkv): Linear(in_features=8192, out_features=24576, bias=True)
                        (inner_attn): FlashAttention()
                        (out_proj): Linear(in_features=8192, out_features=8192, bias=True)
                      )
                    )
                    (ln_2): LayerNorm((8192,), eps=1e-05, elementwise_affine=True)
                    (mlp): GPTMLP(
                      (mlp_up): Linear(in_features=8192, out_features=32768, bias=True)
                      (mlp_act): GELU(approximate='none')
                      (mlp_down): Linear(in_features=32768, out_features=8192, bias=True)
                    )
                    (resid_attn_dropout): Dropout(p=0.0, inplace=False)
                    (resid_mlp_dropout): Dropout(p=0.0, inplace=False)
                  )
                )
              )
            )
            (71): FullyShardedDataParallel(
              (_fsdp_wrapped_module): FlattenParamsWrapper(
                (_fpw_module): CheckpointWrapper(
                  (_checkpoint_wrapped_module): GPTBlock(
                    (ln_1): LayerNorm((8192,), eps=1e-05, elementwise_affine=True)
                    (causal_attn): FlashCausalAttention(
                      (mhsa): FlashMHA(
                        (Wqkv): Linear(in_features=8192, out_features=24576, bias=True)
                        (inner_attn): FlashAttention()
                        (out_proj): Linear(in_features=8192, out_features=8192, bias=True)
                      )
                    )
                    (ln_2): LayerNorm((8192,), eps=1e-05, elementwise_affine=True)
                    (mlp): GPTMLP(
                      (mlp_up): Linear(in_features=8192, out_features=32768, bias=True)
                      (mlp_act): GELU(approximate='none')
                      (mlp_down): Linear(in_features=32768, out_features=8192, bias=True)
                    )
                    (resid_attn_dropout): Dropout(p=0.0, inplace=False)
                    (resid_mlp_dropout): Dropout(p=0.0, inplace=False)
                  )
                )
              )
            )
            (72): FullyShardedDataParallel(
              (_fsdp_wrapped_module): FlattenParamsWrapper(
                (_fpw_module): CheckpointWrapper(
                  (_checkpoint_wrapped_module): GPTBlock(
                    (ln_1): LayerNorm((8192,), eps=1e-05, elementwise_affine=True)
                    (causal_attn): FlashCausalAttention(
                      (mhsa): FlashMHA(
                        (Wqkv): Linear(in_features=8192, out_features=24576, bias=True)
                        (inner_attn): FlashAttention()
                        (out_proj): Linear(in_features=8192, out_features=8192, bias=True)
                      )
                    )
                    (ln_2): LayerNorm((8192,), eps=1e-05, elementwise_affine=True)
                    (mlp): GPTMLP(
                      (mlp_up): Linear(in_features=8192, out_features=32768, bias=True)
                      (mlp_act): GELU(approximate='none')
                      (mlp_down): Linear(in_features=32768, out_features=8192, bias=True)
                    )
                    (resid_attn_dropout): Dropout(p=0.0, inplace=False)
                    (resid_mlp_dropout): Dropout(p=0.0, inplace=False)
                  )
                )
              )
            )
            (73): FullyShardedDataParallel(
              (_fsdp_wrapped_module): FlattenParamsWrapper(
                (_fpw_module): CheckpointWrapper(
                  (_checkpoint_wrapped_module): GPTBlock(
                    (ln_1): LayerNorm((8192,), eps=1e-05, elementwise_affine=True)
                    (causal_attn): FlashCausalAttention(
                      (mhsa): FlashMHA(
                        (Wqkv): Linear(in_features=8192, out_features=24576, bias=True)
                        (inner_attn): FlashAttention()
                        (out_proj): Linear(in_features=8192, out_features=8192, bias=True)
                      )
                    )
                    (ln_2): LayerNorm((8192,), eps=1e-05, elementwise_affine=True)
                    (mlp): GPTMLP(
                      (mlp_up): Linear(in_features=8192, out_features=32768, bias=True)
                      (mlp_act): GELU(approximate='none')
                      (mlp_down): Linear(in_features=32768, out_features=8192, bias=True)
                    )
                    (resid_attn_dropout): Dropout(p=0.0, inplace=False)
                    (resid_mlp_dropout): Dropout(p=0.0, inplace=False)
                  )
                )
              )
            )
            (74): FullyShardedDataParallel(
              (_fsdp_wrapped_module): FlattenParamsWrapper(
                (_fpw_module): CheckpointWrapper(
                  (_checkpoint_wrapped_module): GPTBlock(
                    (ln_1): LayerNorm((8192,), eps=1e-05, elementwise_affine=True)
                    (causal_attn): FlashCausalAttention(
                      (mhsa): FlashMHA(
                        (Wqkv): Linear(in_features=8192, out_features=24576, bias=True)
                        (inner_attn): FlashAttention()
                        (out_proj): Linear(in_features=8192, out_features=8192, bias=True)
                      )
                    )
                    (ln_2): LayerNorm((8192,), eps=1e-05, elementwise_affine=True)
                    (mlp): GPTMLP(
                      (mlp_up): Linear(in_features=8192, out_features=32768, bias=True)
                      (mlp_act): GELU(approximate='none')
                      (mlp_down): Linear(in_features=32768, out_features=8192, bias=True)
                    )
                    (resid_attn_dropout): Dropout(p=0.0, inplace=False)
                    (resid_mlp_dropout): Dropout(p=0.0, inplace=False)
                  )
                )
              )
            )
            (75): FullyShardedDataParallel(
              (_fsdp_wrapped_module): FlattenParamsWrapper(
                (_fpw_module): CheckpointWrapper(
                  (_checkpoint_wrapped_module): GPTBlock(
                    (ln_1): LayerNorm((8192,), eps=1e-05, elementwise_affine=True)
                    (causal_attn): FlashCausalAttention(
                      (mhsa): FlashMHA(
                        (Wqkv): Linear(in_features=8192, out_features=24576, bias=True)
                        (inner_attn): FlashAttention()
                        (out_proj): Linear(in_features=8192, out_features=8192, bias=True)
                      )
                    )
                    (ln_2): LayerNorm((8192,), eps=1e-05, elementwise_affine=True)
                    (mlp): GPTMLP(
                      (mlp_up): Linear(in_features=8192, out_features=32768, bias=True)
                      (mlp_act): GELU(approximate='none')
                      (mlp_down): Linear(in_features=32768, out_features=8192, bias=True)
                    )
                    (resid_attn_dropout): Dropout(p=0.0, inplace=False)
                    (resid_mlp_dropout): Dropout(p=0.0, inplace=False)
                  )
                )
              )
            )
            (76): FullyShardedDataParallel(
              (_fsdp_wrapped_module): FlattenParamsWrapper(
                (_fpw_module): CheckpointWrapper(
                  (_checkpoint_wrapped_module): GPTBlock(
                    (ln_1): LayerNorm((8192,), eps=1e-05, elementwise_affine=True)
                    (causal_attn): FlashCausalAttention(
                      (mhsa): FlashMHA(
                        (Wqkv): Linear(in_features=8192, out_features=24576, bias=True)
                        (inner_attn): FlashAttention()
                        (out_proj): Linear(in_features=8192, out_features=8192, bias=True)
                      )
                    )
                    (ln_2): LayerNorm((8192,), eps=1e-05, elementwise_affine=True)
                    (mlp): GPTMLP(
                      (mlp_up): Linear(in_features=8192, out_features=32768, bias=True)
                      (mlp_act): GELU(approximate='none')
                      (mlp_down): Linear(in_features=32768, out_features=8192, bias=True)
                    )
                    (resid_attn_dropout): Dropout(p=0.0, inplace=False)
                    (resid_mlp_dropout): Dropout(p=0.0, inplace=False)
                  )
                )
              )
            )
            (77): FullyShardedDataParallel(
              (_fsdp_wrapped_module): FlattenParamsWrapper(
                (_fpw_module): CheckpointWrapper(
                  (_checkpoint_wrapped_module): GPTBlock(
                    (ln_1): LayerNorm((8192,), eps=1e-05, elementwise_affine=True)
                    (causal_attn): FlashCausalAttention(
                      (mhsa): FlashMHA(
                        (Wqkv): Linear(in_features=8192, out_features=24576, bias=True)
                        (inner_attn): FlashAttention()
                        (out_proj): Linear(in_features=8192, out_features=8192, bias=True)
                      )
                    )
                    (ln_2): LayerNorm((8192,), eps=1e-05, elementwise_affine=True)
                    (mlp): GPTMLP(
                      (mlp_up): Linear(in_features=8192, out_features=32768, bias=True)
                      (mlp_act): GELU(approximate='none')
                      (mlp_down): Linear(in_features=32768, out_features=8192, bias=True)
                    )
                    (resid_attn_dropout): Dropout(p=0.0, inplace=False)
                    (resid_mlp_dropout): Dropout(p=0.0, inplace=False)
                  )
                )
              )
            )
            (78): FullyShardedDataParallel(
              (_fsdp_wrapped_module): FlattenParamsWrapper(
                (_fpw_module): CheckpointWrapper(
                  (_checkpoint_wrapped_module): GPTBlock(
                    (ln_1): LayerNorm((8192,), eps=1e-05, elementwise_affine=True)
                    (causal_attn): FlashCausalAttention(
                      (mhsa): FlashMHA(
                        (Wqkv): Linear(in_features=8192, out_features=24576, bias=True)
                        (inner_attn): FlashAttention()
                        (out_proj): Linear(in_features=8192, out_features=8192, bias=True)
                      )
                    )
                    (ln_2): LayerNorm((8192,), eps=1e-05, elementwise_affine=True)
                    (mlp): GPTMLP(
                      (mlp_up): Linear(in_features=8192, out_features=32768, bias=True)
                      (mlp_act): GELU(approximate='none')
                      (mlp_down): Linear(in_features=32768, out_features=8192, bias=True)
                    )
                    (resid_attn_dropout): Dropout(p=0.0, inplace=False)
                    (resid_mlp_dropout): Dropout(p=0.0, inplace=False)
                  )
                )
              )
            )
            (79): FullyShardedDataParallel(
              (_fsdp_wrapped_module): FlattenParamsWrapper(
                (_fpw_module): CheckpointWrapper(
                  (_checkpoint_wrapped_module): GPTBlock(
                    (ln_1): LayerNorm((8192,), eps=1e-05, elementwise_affine=True)
                    (causal_attn): FlashCausalAttention(
                      (mhsa): FlashMHA(
                        (Wqkv): Linear(in_features=8192, out_features=24576, bias=True)
                        (inner_attn): FlashAttention()
                        (out_proj): Linear(in_features=8192, out_features=8192, bias=True)
                      )
                    )
                    (ln_2): LayerNorm((8192,), eps=1e-05, elementwise_affine=True)
                    (mlp): GPTMLP(
                      (mlp_up): Linear(in_features=8192, out_features=32768, bias=True)
                      (mlp_act): GELU(approximate='none')
                      (mlp_down): Linear(in_features=32768, out_features=8192, bias=True)
                    )
                    (resid_attn_dropout): Dropout(p=0.0, inplace=False)
                    (resid_mlp_dropout): Dropout(p=0.0, inplace=False)
                  )
                )
              )
            )
            (80): FullyShardedDataParallel(
              (_fsdp_wrapped_module): FlattenParamsWrapper(
                (_fpw_module): CheckpointWrapper(
                  (_checkpoint_wrapped_module): GPTBlock(
                    (ln_1): LayerNorm((8192,), eps=1e-05, elementwise_affine=True)
                    (causal_attn): FlashCausalAttention(
                      (mhsa): FlashMHA(
                        (Wqkv): Linear(in_features=8192, out_features=24576, bias=True)
                        (inner_attn): FlashAttention()
                        (out_proj): Linear(in_features=8192, out_features=8192, bias=True)
                      )
                    )
                    (ln_2): LayerNorm((8192,), eps=1e-05, elementwise_affine=True)
                    (mlp): GPTMLP(
                      (mlp_up): Linear(in_features=8192, out_features=32768, bias=True)
                      (mlp_act): GELU(approximate='none')
                      (mlp_down): Linear(in_features=32768, out_features=8192, bias=True)
                    )
                    (resid_attn_dropout): Dropout(p=0.0, inplace=False)
                    (resid_mlp_dropout): Dropout(p=0.0, inplace=False)
                  )
                )
              )
            )
            (81): FullyShardedDataParallel(
              (_fsdp_wrapped_module): FlattenParamsWrapper(
                (_fpw_module): CheckpointWrapper(
                  (_checkpoint_wrapped_module): GPTBlock(
                    (ln_1): LayerNorm((8192,), eps=1e-05, elementwise_affine=True)
                    (causal_attn): FlashCausalAttention(
                      (mhsa): FlashMHA(
                        (Wqkv): Linear(in_features=8192, out_features=24576, bias=True)
                        (inner_attn): FlashAttention()
                        (out_proj): Linear(in_features=8192, out_features=8192, bias=True)
                      )
                    )
                    (ln_2): LayerNorm((8192,), eps=1e-05, elementwise_affine=True)
                    (mlp): GPTMLP(
                      (mlp_up): Linear(in_features=8192, out_features=32768, bias=True)
                      (mlp_act): GELU(approximate='none')
                      (mlp_down): Linear(in_features=32768, out_features=8192, bias=True)
                    )
                    (resid_attn_dropout): Dropout(p=0.0, inplace=False)
                    (resid_mlp_dropout): Dropout(p=0.0, inplace=False)
                  )
                )
              )
            )
            (82): FullyShardedDataParallel(
              (_fsdp_wrapped_module): FlattenParamsWrapper(
                (_fpw_module): CheckpointWrapper(
                  (_checkpoint_wrapped_module): GPTBlock(
                    (ln_1): LayerNorm((8192,), eps=1e-05, elementwise_affine=True)
                    (causal_attn): FlashCausalAttention(
                      (mhsa): FlashMHA(
                        (Wqkv): Linear(in_features=8192, out_features=24576, bias=True)
                        (inner_attn): FlashAttention()
                        (out_proj): Linear(in_features=8192, out_features=8192, bias=True)
                      )
                    )
                    (ln_2): LayerNorm((8192,), eps=1e-05, elementwise_affine=True)
                    (mlp): GPTMLP(
                      (mlp_up): Linear(in_features=8192, out_features=32768, bias=True)
                      (mlp_act): GELU(approximate='none')
                      (mlp_down): Linear(in_features=32768, out_features=8192, bias=True)
                    )
                    (resid_attn_dropout): Dropout(p=0.0, inplace=False)
                    (resid_mlp_dropout): Dropout(p=0.0, inplace=False)
                  )
                )
              )
            )
            (83): FullyShardedDataParallel(
              (_fsdp_wrapped_module): FlattenParamsWrapper(
                (_fpw_module): CheckpointWrapper(
                  (_checkpoint_wrapped_module): GPTBlock(
                    (ln_1): LayerNorm((8192,), eps=1e-05, elementwise_affine=True)
                    (causal_attn): FlashCausalAttention(
                      (mhsa): FlashMHA(
                        (Wqkv): Linear(in_features=8192, out_features=24576, bias=True)
                        (inner_attn): FlashAttention()
                        (out_proj): Linear(in_features=8192, out_features=8192, bias=True)
                      )
                    )
                    (ln_2): LayerNorm((8192,), eps=1e-05, elementwise_affine=True)
                    (mlp): GPTMLP(
                      (mlp_up): Linear(in_features=8192, out_features=32768, bias=True)
                      (mlp_act): GELU(approximate='none')
                      (mlp_down): Linear(in_features=32768, out_features=8192, bias=True)
                    )
                    (resid_attn_dropout): Dropout(p=0.0, inplace=False)
                    (resid_mlp_dropout): Dropout(p=0.0, inplace=False)
                  )
                )
              )
            )
            (84): FullyShardedDataParallel(
              (_fsdp_wrapped_module): FlattenParamsWrapper(
                (_fpw_module): CheckpointWrapper(
                  (_checkpoint_wrapped_module): GPTBlock(
                    (ln_1): LayerNorm((8192,), eps=1e-05, elementwise_affine=True)
                    (causal_attn): FlashCausalAttention(
                      (mhsa): FlashMHA(
                        (Wqkv): Linear(in_features=8192, out_features=24576, bias=True)
                        (inner_attn): FlashAttention()
                        (out_proj): Linear(in_features=8192, out_features=8192, bias=True)
                      )
                    )
                    (ln_2): LayerNorm((8192,), eps=1e-05, elementwise_affine=True)
                    (mlp): GPTMLP(
                      (mlp_up): Linear(in_features=8192, out_features=32768, bias=True)
                      (mlp_act): GELU(approximate='none')
                      (mlp_down): Linear(in_features=32768, out_features=8192, bias=True)
                    )
                    (resid_attn_dropout): Dropout(p=0.0, inplace=False)
                    (resid_mlp_dropout): Dropout(p=0.0, inplace=False)
                  )
                )
              )
            )
            (85): FullyShardedDataParallel(
              (_fsdp_wrapped_module): FlattenParamsWrapper(
                (_fpw_module): CheckpointWrapper(
                  (_checkpoint_wrapped_module): GPTBlock(
                    (ln_1): LayerNorm((8192,), eps=1e-05, elementwise_affine=True)
                    (causal_attn): FlashCausalAttention(
                      (mhsa): FlashMHA(
                        (Wqkv): Linear(in_features=8192, out_features=24576, bias=True)
                        (inner_attn): FlashAttention()
                        (out_proj): Linear(in_features=8192, out_features=8192, bias=True)
                      )
                    )
                    (ln_2): LayerNorm((8192,), eps=1e-05, elementwise_affine=True)
                    (mlp): GPTMLP(
                      (mlp_up): Linear(in_features=8192, out_features=32768, bias=True)
                      (mlp_act): GELU(approximate='none')
                      (mlp_down): Linear(in_features=32768, out_features=8192, bias=True)
                    )
                    (resid_attn_dropout): Dropout(p=0.0, inplace=False)
                    (resid_mlp_dropout): Dropout(p=0.0, inplace=False)
                  )
                )
              )
            )
            (86): FullyShardedDataParallel(
              (_fsdp_wrapped_module): FlattenParamsWrapper(
                (_fpw_module): CheckpointWrapper(
                  (_checkpoint_wrapped_module): GPTBlock(
                    (ln_1): LayerNorm((8192,), eps=1e-05, elementwise_affine=True)
                    (causal_attn): FlashCausalAttention(
                      (mhsa): FlashMHA(
                        (Wqkv): Linear(in_features=8192, out_features=24576, bias=True)
                        (inner_attn): FlashAttention()
                        (out_proj): Linear(in_features=8192, out_features=8192, bias=True)
                      )
                    )
                    (ln_2): LayerNorm((8192,), eps=1e-05, elementwise_affine=True)
                    (mlp): GPTMLP(
                      (mlp_up): Linear(in_features=8192, out_features=32768, bias=True)
                      (mlp_act): GELU(approximate='none')
                      (mlp_down): Linear(in_features=32768, out_features=8192, bias=True)
                    )
                    (resid_attn_dropout): Dropout(p=0.0, inplace=False)
                    (resid_mlp_dropout): Dropout(p=0.0, inplace=False)
                  )
                )
              )
            )
            (87): FullyShardedDataParallel(
              (_fsdp_wrapped_module): FlattenParamsWrapper(
                (_fpw_module): CheckpointWrapper(
                  (_checkpoint_wrapped_module): GPTBlock(
                    (ln_1): LayerNorm((8192,), eps=1e-05, elementwise_affine=True)
                    (causal_attn): FlashCausalAttention(
                      (mhsa): FlashMHA(
                        (Wqkv): Linear(in_features=8192, out_features=24576, bias=True)
                        (inner_attn): FlashAttention()
                        (out_proj): Linear(in_features=8192, out_features=8192, bias=True)
                      )
                    )
                    (ln_2): LayerNorm((8192,), eps=1e-05, elementwise_affine=True)
                    (mlp): GPTMLP(
                      (mlp_up): Linear(in_features=8192, out_features=32768, bias=True)
                      (mlp_act): GELU(approximate='none')
                      (mlp_down): Linear(in_features=32768, out_features=8192, bias=True)
                    )
                    (resid_attn_dropout): Dropout(p=0.0, inplace=False)
                    (resid_mlp_dropout): Dropout(p=0.0, inplace=False)
                  )
                )
              )
            )
            (88): FullyShardedDataParallel(
              (_fsdp_wrapped_module): FlattenParamsWrapper(
                (_fpw_module): CheckpointWrapper(
                  (_checkpoint_wrapped_module): GPTBlock(
                    (ln_1): LayerNorm((8192,), eps=1e-05, elementwise_affine=True)
                    (causal_attn): FlashCausalAttention(
                      (mhsa): FlashMHA(
                        (Wqkv): Linear(in_features=8192, out_features=24576, bias=True)
                        (inner_attn): FlashAttention()
                        (out_proj): Linear(in_features=8192, out_features=8192, bias=True)
                      )
                    )
                    (ln_2): LayerNorm((8192,), eps=1e-05, elementwise_affine=True)
                    (mlp): GPTMLP(
                      (mlp_up): Linear(in_features=8192, out_features=32768, bias=True)
                      (mlp_act): GELU(approximate='none')
                      (mlp_down): Linear(in_features=32768, out_features=8192, bias=True)
                    )
                    (resid_attn_dropout): Dropout(p=0.0, inplace=False)
                    (resid_mlp_dropout): Dropout(p=0.0, inplace=False)
                  )
                )
              )
            )
            (89): FullyShardedDataParallel(
              (_fsdp_wrapped_module): FlattenParamsWrapper(
                (_fpw_module): CheckpointWrapper(
                  (_checkpoint_wrapped_module): GPTBlock(
                    (ln_1): LayerNorm((8192,), eps=1e-05, elementwise_affine=True)
                    (causal_attn): FlashCausalAttention(
                      (mhsa): FlashMHA(
                        (Wqkv): Linear(in_features=8192, out_features=24576, bias=True)
                        (inner_attn): FlashAttention()
                        (out_proj): Linear(in_features=8192, out_features=8192, bias=True)
                      )
                    )
                    (ln_2): LayerNorm((8192,), eps=1e-05, elementwise_affine=True)
                    (mlp): GPTMLP(
                      (mlp_up): Linear(in_features=8192, out_features=32768, bias=True)
                      (mlp_act): GELU(approximate='none')
                      (mlp_down): Linear(in_features=32768, out_features=8192, bias=True)
                    )
                    (resid_attn_dropout): Dropout(p=0.0, inplace=False)
                    (resid_mlp_dropout): Dropout(p=0.0, inplace=False)
                  )
                )
              )
            )
            (90): FullyShardedDataParallel(
              (_fsdp_wrapped_module): FlattenParamsWrapper(
                (_fpw_module): CheckpointWrapper(
                  (_checkpoint_wrapped_module): GPTBlock(
                    (ln_1): LayerNorm((8192,), eps=1e-05, elementwise_affine=True)
                    (causal_attn): FlashCausalAttention(
                      (mhsa): FlashMHA(
                        (Wqkv): Linear(in_features=8192, out_features=24576, bias=True)
                        (inner_attn): FlashAttention()
                        (out_proj): Linear(in_features=8192, out_features=8192, bias=True)
                      )
                    )
                    (ln_2): LayerNorm((8192,), eps=1e-05, elementwise_affine=True)
                    (mlp): GPTMLP(
                      (mlp_up): Linear(in_features=8192, out_features=32768, bias=True)
                      (mlp_act): GELU(approximate='none')
                      (mlp_down): Linear(in_features=32768, out_features=8192, bias=True)
                    )
                    (resid_attn_dropout): Dropout(p=0.0, inplace=False)
                    (resid_mlp_dropout): Dropout(p=0.0, inplace=False)
                  )
                )
              )
            )
            (91): FullyShardedDataParallel(
              (_fsdp_wrapped_module): FlattenParamsWrapper(
                (_fpw_module): CheckpointWrapper(
                  (_checkpoint_wrapped_module): GPTBlock(
                    (ln_1): LayerNorm((8192,), eps=1e-05, elementwise_affine=True)
                    (causal_attn): FlashCausalAttention(
                      (mhsa): FlashMHA(
                        (Wqkv): Linear(in_features=8192, out_features=24576, bias=True)
                        (inner_attn): FlashAttention()
                        (out_proj): Linear(in_features=8192, out_features=8192, bias=True)
                      )
                    )
                    (ln_2): LayerNorm((8192,), eps=1e-05, elementwise_affine=True)
                    (mlp): GPTMLP(
                      (mlp_up): Linear(in_features=8192, out_features=32768, bias=True)
                      (mlp_act): GELU(approximate='none')
                      (mlp_down): Linear(in_features=32768, out_features=8192, bias=True)
                    )
                    (resid_attn_dropout): Dropout(p=0.0, inplace=False)
                    (resid_mlp_dropout): Dropout(p=0.0, inplace=False)
                  )
                )
              )
            )
            (92): FullyShardedDataParallel(
              (_fsdp_wrapped_module): FlattenParamsWrapper(
                (_fpw_module): CheckpointWrapper(
                  (_checkpoint_wrapped_module): GPTBlock(
                    (ln_1): LayerNorm((8192,), eps=1e-05, elementwise_affine=True)
                    (causal_attn): FlashCausalAttention(
                      (mhsa): FlashMHA(
                        (Wqkv): Linear(in_features=8192, out_features=24576, bias=True)
                        (inner_attn): FlashAttention()
                        (out_proj): Linear(in_features=8192, out_features=8192, bias=True)
                      )
                    )
                    (ln_2): LayerNorm((8192,), eps=1e-05, elementwise_affine=True)
                    (mlp): GPTMLP(
                      (mlp_up): Linear(in_features=8192, out_features=32768, bias=True)
                      (mlp_act): GELU(approximate='none')
                      (mlp_down): Linear(in_features=32768, out_features=8192, bias=True)
                    )
                    (resid_attn_dropout): Dropout(p=0.0, inplace=False)
                    (resid_mlp_dropout): Dropout(p=0.0, inplace=False)
                  )
                )
              )
            )
            (93): FullyShardedDataParallel(
              (_fsdp_wrapped_module): FlattenParamsWrapper(
                (_fpw_module): CheckpointWrapper(
                  (_checkpoint_wrapped_module): GPTBlock(
                    (ln_1): LayerNorm((8192,), eps=1e-05, elementwise_affine=True)
                    (causal_attn): FlashCausalAttention(
                      (mhsa): FlashMHA(
                        (Wqkv): Linear(in_features=8192, out_features=24576, bias=True)
                        (inner_attn): FlashAttention()
                        (out_proj): Linear(in_features=8192, out_features=8192, bias=True)
                      )
                    )
                    (ln_2): LayerNorm((8192,), eps=1e-05, elementwise_affine=True)
                    (mlp): GPTMLP(
                      (mlp_up): Linear(in_features=8192, out_features=32768, bias=True)
                      (mlp_act): GELU(approximate='none')
                      (mlp_down): Linear(in_features=32768, out_features=8192, bias=True)
                    )
                    (resid_attn_dropout): Dropout(p=0.0, inplace=False)
                    (resid_mlp_dropout): Dropout(p=0.0, inplace=False)
                  )
                )
              )
            )
            (94): FullyShardedDataParallel(
              (_fsdp_wrapped_module): FlattenParamsWrapper(
                (_fpw_module): CheckpointWrapper(
                  (_checkpoint_wrapped_module): GPTBlock(
                    (ln_1): LayerNorm((8192,), eps=1e-05, elementwise_affine=True)
                    (causal_attn): FlashCausalAttention(
                      (mhsa): FlashMHA(
                        (Wqkv): Linear(in_features=8192, out_features=24576, bias=True)
                        (inner_attn): FlashAttention()
                        (out_proj): Linear(in_features=8192, out_features=8192, bias=True)
                      )
                    )
                    (ln_2): LayerNorm((8192,), eps=1e-05, elementwise_affine=True)
                    (mlp): GPTMLP(
                      (mlp_up): Linear(in_features=8192, out_features=32768, bias=True)
                      (mlp_act): GELU(approximate='none')
                      (mlp_down): Linear(in_features=32768, out_features=8192, bias=True)
                    )
                    (resid_attn_dropout): Dropout(p=0.0, inplace=False)
                    (resid_mlp_dropout): Dropout(p=0.0, inplace=False)
                  )
                )
              )
            )
            (95): FullyShardedDataParallel(
              (_fsdp_wrapped_module): FlattenParamsWrapper(
                (_fpw_module): CheckpointWrapper(
                  (_checkpoint_wrapped_module): GPTBlock(
                    (ln_1): LayerNorm((8192,), eps=1e-05, elementwise_affine=True)
                    (causal_attn): FlashCausalAttention(
                      (mhsa): FlashMHA(
                        (Wqkv): Linear(in_features=8192, out_features=24576, bias=True)
                        (inner_attn): FlashAttention()
                        (out_proj): Linear(in_features=8192, out_features=8192, bias=True)
                      )
                    )
                    (ln_2): LayerNorm((8192,), eps=1e-05, elementwise_affine=True)
                    (mlp): GPTMLP(
                      (mlp_up): Linear(in_features=8192, out_features=32768, bias=True)
                      (mlp_act): GELU(approximate='none')
                      (mlp_down): Linear(in_features=32768, out_features=8192, bias=True)
                    )
                    (resid_attn_dropout): Dropout(p=0.0, inplace=False)
                    (resid_mlp_dropout): Dropout(p=0.0, inplace=False)
                  )
                )
              )
            )
            (96): FullyShardedDataParallel(
              (_fsdp_wrapped_module): FlattenParamsWrapper(
                (_fpw_module): CheckpointWrapper(
                  (_checkpoint_wrapped_module): GPTBlock(
                    (ln_1): LayerNorm((8192,), eps=1e-05, elementwise_affine=True)
                    (causal_attn): FlashCausalAttention(
                      (mhsa): FlashMHA(
                        (Wqkv): Linear(in_features=8192, out_features=24576, bias=True)
                        (inner_attn): FlashAttention()
                        (out_proj): Linear(in_features=8192, out_features=8192, bias=True)
                      )
                    )
                    (ln_2): LayerNorm((8192,), eps=1e-05, elementwise_affine=True)
                    (mlp): GPTMLP(
                      (mlp_up): Linear(in_features=8192, out_features=32768, bias=True)
                      (mlp_act): GELU(approximate='none')
                      (mlp_down): Linear(in_features=32768, out_features=8192, bias=True)
                    )
                    (resid_attn_dropout): Dropout(p=0.0, inplace=False)
                    (resid_mlp_dropout): Dropout(p=0.0, inplace=False)
                  )
                )
              )
            )
            (97): FullyShardedDataParallel(
              (_fsdp_wrapped_module): FlattenParamsWrapper(
                (_fpw_module): CheckpointWrapper(
                  (_checkpoint_wrapped_module): GPTBlock(
                    (ln_1): LayerNorm((8192,), eps=1e-05, elementwise_affine=True)
                    (causal_attn): FlashCausalAttention(
                      (mhsa): FlashMHA(
                        (Wqkv): Linear(in_features=8192, out_features=24576, bias=True)
                        (inner_attn): FlashAttention()
                        (out_proj): Linear(in_features=8192, out_features=8192, bias=True)
                      )
                    )
                    (ln_2): LayerNorm((8192,), eps=1e-05, elementwise_affine=True)
                    (mlp): GPTMLP(
                      (mlp_up): Linear(in_features=8192, out_features=32768, bias=True)
                      (mlp_act): GELU(approximate='none')
                      (mlp_down): Linear(in_features=32768, out_features=8192, bias=True)
                    )
                    (resid_attn_dropout): Dropout(p=0.0, inplace=False)
                    (resid_mlp_dropout): Dropout(p=0.0, inplace=False)
                  )
                )
              )
            )
            (98): FullyShardedDataParallel(
              (_fsdp_wrapped_module): FlattenParamsWrapper(
                (_fpw_module): CheckpointWrapper(
                  (_checkpoint_wrapped_module): GPTBlock(
                    (ln_1): LayerNorm((8192,), eps=1e-05, elementwise_affine=True)
                    (causal_attn): FlashCausalAttention(
                      (mhsa): FlashMHA(
                        (Wqkv): Linear(in_features=8192, out_features=24576, bias=True)
                        (inner_attn): FlashAttention()
                        (out_proj): Linear(in_features=8192, out_features=8192, bias=True)
                      )
                    )
                    (ln_2): LayerNorm((8192,), eps=1e-05, elementwise_affine=True)
                    (mlp): GPTMLP(
                      (mlp_up): Linear(in_features=8192, out_features=32768, bias=True)
                      (mlp_act): GELU(approximate='none')
                      (mlp_down): Linear(in_features=32768, out_features=8192, bias=True)
                    )
                    (resid_attn_dropout): Dropout(p=0.0, inplace=False)
                    (resid_mlp_dropout): Dropout(p=0.0, inplace=False)
                  )
                )
              )
            )
            (99): FullyShardedDataParallel(
              (_fsdp_wrapped_module): FlattenParamsWrapper(
                (_fpw_module): CheckpointWrapper(
                  (_checkpoint_wrapped_module): GPTBlock(
                    (ln_1): LayerNorm((8192,), eps=1e-05, elementwise_affine=True)
                    (causal_attn): FlashCausalAttention(
                      (mhsa): FlashMHA(
                        (Wqkv): Linear(in_features=8192, out_features=24576, bias=True)
                        (inner_attn): FlashAttention()
                        (out_proj): Linear(in_features=8192, out_features=8192, bias=True)
                      )
                    )
                    (ln_2): LayerNorm((8192,), eps=1e-05, elementwise_affine=True)
                    (mlp): GPTMLP(
                      (mlp_up): Linear(in_features=8192, out_features=32768, bias=True)
                      (mlp_act): GELU(approximate='none')
                      (mlp_down): Linear(in_features=32768, out_features=8192, bias=True)
                    )
                    (resid_attn_dropout): Dropout(p=0.0, inplace=False)
                    (resid_mlp_dropout): Dropout(p=0.0, inplace=False)
                  )
                )
              )
            )
            (100): FullyShardedDataParallel(
              (_fsdp_wrapped_module): FlattenParamsWrapper(
                (_fpw_module): CheckpointWrapper(
                  (_checkpoint_wrapped_module): GPTBlock(
                    (ln_1): LayerNorm((8192,), eps=1e-05, elementwise_affine=True)
                    (causal_attn): FlashCausalAttention(
                      (mhsa): FlashMHA(
                        (Wqkv): Linear(in_features=8192, out_features=24576, bias=True)
                        (inner_attn): FlashAttention()
                        (out_proj): Linear(in_features=8192, out_features=8192, bias=True)
                      )
                    )
                    (ln_2): LayerNorm((8192,), eps=1e-05, elementwise_affine=True)
                    (mlp): GPTMLP(
                      (mlp_up): Linear(in_features=8192, out_features=32768, bias=True)
                      (mlp_act): GELU(approximate='none')
                      (mlp_down): Linear(in_features=32768, out_features=8192, bias=True)
                    )
                    (resid_attn_dropout): Dropout(p=0.0, inplace=False)
                    (resid_mlp_dropout): Dropout(p=0.0, inplace=False)
                  )
                )
              )
            )
            (101): FullyShardedDataParallel(
              (_fsdp_wrapped_module): FlattenParamsWrapper(
                (_fpw_module): CheckpointWrapper(
                  (_checkpoint_wrapped_module): GPTBlock(
                    (ln_1): LayerNorm((8192,), eps=1e-05, elementwise_affine=True)
                    (causal_attn): FlashCausalAttention(
                      (mhsa): FlashMHA(
                        (Wqkv): Linear(in_features=8192, out_features=24576, bias=True)
                        (inner_attn): FlashAttention()
                        (out_proj): Linear(in_features=8192, out_features=8192, bias=True)
                      )
                    )
                    (ln_2): LayerNorm((8192,), eps=1e-05, elementwise_affine=True)
                    (mlp): GPTMLP(
                      (mlp_up): Linear(in_features=8192, out_features=32768, bias=True)
                      (mlp_act): GELU(approximate='none')
                      (mlp_down): Linear(in_features=32768, out_features=8192, bias=True)
                    )
                    (resid_attn_dropout): Dropout(p=0.0, inplace=False)
                    (resid_mlp_dropout): Dropout(p=0.0, inplace=False)
                  )
                )
              )
            )
            (102): FullyShardedDataParallel(
              (_fsdp_wrapped_module): FlattenParamsWrapper(
                (_fpw_module): CheckpointWrapper(
                  (_checkpoint_wrapped_module): GPTBlock(
                    (ln_1): LayerNorm((8192,), eps=1e-05, elementwise_affine=True)
                    (causal_attn): FlashCausalAttention(
                      (mhsa): FlashMHA(
                        (Wqkv): Linear(in_features=8192, out_features=24576, bias=True)
                        (inner_attn): FlashAttention()
                        (out_proj): Linear(in_features=8192, out_features=8192, bias=True)
                      )
                    )
                    (ln_2): LayerNorm((8192,), eps=1e-05, elementwise_affine=True)
                    (mlp): GPTMLP(
                      (mlp_up): Linear(in_features=8192, out_features=32768, bias=True)
                      (mlp_act): GELU(approximate='none')
                      (mlp_down): Linear(in_features=32768, out_features=8192, bias=True)
                    )
                    (resid_attn_dropout): Dropout(p=0.0, inplace=False)
                    (resid_mlp_dropout): Dropout(p=0.0, inplace=False)
                  )
                )
              )
            )
            (103): FullyShardedDataParallel(
              (_fsdp_wrapped_module): FlattenParamsWrapper(
                (_fpw_module): CheckpointWrapper(
                  (_checkpoint_wrapped_module): GPTBlock(
                    (ln_1): LayerNorm((8192,), eps=1e-05, elementwise_affine=True)
                    (causal_attn): FlashCausalAttention(
                      (mhsa): FlashMHA(
                        (Wqkv): Linear(in_features=8192, out_features=24576, bias=True)
                        (inner_attn): FlashAttention()
                        (out_proj): Linear(in_features=8192, out_features=8192, bias=True)
                      )
                    )
                    (ln_2): LayerNorm((8192,), eps=1e-05, elementwise_affine=True)
                    (mlp): GPTMLP(
                      (mlp_up): Linear(in_features=8192, out_features=32768, bias=True)
                      (mlp_act): GELU(approximate='none')
                      (mlp_down): Linear(in_features=32768, out_features=8192, bias=True)
                    )
                    (resid_attn_dropout): Dropout(p=0.0, inplace=False)
                    (resid_mlp_dropout): Dropout(p=0.0, inplace=False)
                  )
                )
              )
            )
            (104): FullyShardedDataParallel(
              (_fsdp_wrapped_module): FlattenParamsWrapper(
                (_fpw_module): CheckpointWrapper(
                  (_checkpoint_wrapped_module): GPTBlock(
                    (ln_1): LayerNorm((8192,), eps=1e-05, elementwise_affine=True)
                    (causal_attn): FlashCausalAttention(
                      (mhsa): FlashMHA(
                        (Wqkv): Linear(in_features=8192, out_features=24576, bias=True)
                        (inner_attn): FlashAttention()
                        (out_proj): Linear(in_features=8192, out_features=8192, bias=True)
                      )
                    )
                    (ln_2): LayerNorm((8192,), eps=1e-05, elementwise_affine=True)
                    (mlp): GPTMLP(
                      (mlp_up): Linear(in_features=8192, out_features=32768, bias=True)
                      (mlp_act): GELU(approximate='none')
                      (mlp_down): Linear(in_features=32768, out_features=8192, bias=True)
                    )
                    (resid_attn_dropout): Dropout(p=0.0, inplace=False)
                    (resid_mlp_dropout): Dropout(p=0.0, inplace=False)
                  )
                )
              )
            )
            (105): FullyShardedDataParallel(
              (_fsdp_wrapped_module): FlattenParamsWrapper(
                (_fpw_module): CheckpointWrapper(
                  (_checkpoint_wrapped_module): GPTBlock(
                    (ln_1): LayerNorm((8192,), eps=1e-05, elementwise_affine=True)
                    (causal_attn): FlashCausalAttention(
                      (mhsa): FlashMHA(
                        (Wqkv): Linear(in_features=8192, out_features=24576, bias=True)
                        (inner_attn): FlashAttention()
                        (out_proj): Linear(in_features=8192, out_features=8192, bias=True)
                      )
                    )
                    (ln_2): LayerNorm((8192,), eps=1e-05, elementwise_affine=True)
                    (mlp): GPTMLP(
                      (mlp_up): Linear(in_features=8192, out_features=32768, bias=True)
                      (mlp_act): GELU(approximate='none')
                      (mlp_down): Linear(in_features=32768, out_features=8192, bias=True)
                    )
                    (resid_attn_dropout): Dropout(p=0.0, inplace=False)
                    (resid_mlp_dropout): Dropout(p=0.0, inplace=False)
                  )
                )
              )
            )
            (106): FullyShardedDataParallel(
              (_fsdp_wrapped_module): FlattenParamsWrapper(
                (_fpw_module): CheckpointWrapper(
                  (_checkpoint_wrapped_module): GPTBlock(
                    (ln_1): LayerNorm((8192,), eps=1e-05, elementwise_affine=True)
                    (causal_attn): FlashCausalAttention(
                      (mhsa): FlashMHA(
                        (Wqkv): Linear(in_features=8192, out_features=24576, bias=True)
                        (inner_attn): FlashAttention()
                        (out_proj): Linear(in_features=8192, out_features=8192, bias=True)
                      )
                    )
                    (ln_2): LayerNorm((8192,), eps=1e-05, elementwise_affine=True)
                    (mlp): GPTMLP(
                      (mlp_up): Linear(in_features=8192, out_features=32768, bias=True)
                      (mlp_act): GELU(approximate='none')
                      (mlp_down): Linear(in_features=32768, out_features=8192, bias=True)
                    )
                    (resid_attn_dropout): Dropout(p=0.0, inplace=False)
                    (resid_mlp_dropout): Dropout(p=0.0, inplace=False)
                  )
                )
              )
            )
            (107): FullyShardedDataParallel(
              (_fsdp_wrapped_module): FlattenParamsWrapper(
                (_fpw_module): CheckpointWrapper(
                  (_checkpoint_wrapped_module): GPTBlock(
                    (ln_1): LayerNorm((8192,), eps=1e-05, elementwise_affine=True)
                    (causal_attn): FlashCausalAttention(
                      (mhsa): FlashMHA(
                        (Wqkv): Linear(in_features=8192, out_features=24576, bias=True)
                        (inner_attn): FlashAttention()
                        (out_proj): Linear(in_features=8192, out_features=8192, bias=True)
                      )
                    )
                    (ln_2): LayerNorm((8192,), eps=1e-05, elementwise_affine=True)
                    (mlp): GPTMLP(
                      (mlp_up): Linear(in_features=8192, out_features=32768, bias=True)
                      (mlp_act): GELU(approximate='none')
                      (mlp_down): Linear(in_features=32768, out_features=8192, bias=True)
                    )
                    (resid_attn_dropout): Dropout(p=0.0, inplace=False)
                    (resid_mlp_dropout): Dropout(p=0.0, inplace=False)
                  )
                )
              )
            )
            (108): FullyShardedDataParallel(
              (_fsdp_wrapped_module): FlattenParamsWrapper(
                (_fpw_module): CheckpointWrapper(
                  (_checkpoint_wrapped_module): GPTBlock(
                    (ln_1): LayerNorm((8192,), eps=1e-05, elementwise_affine=True)
                    (causal_attn): FlashCausalAttention(
                      (mhsa): FlashMHA(
                        (Wqkv): Linear(in_features=8192, out_features=24576, bias=True)
                        (inner_attn): FlashAttention()
                        (out_proj): Linear(in_features=8192, out_features=8192, bias=True)
                      )
                    )
                    (ln_2): LayerNorm((8192,), eps=1e-05, elementwise_affine=True)
                    (mlp): GPTMLP(
                      (mlp_up): Linear(in_features=8192, out_features=32768, bias=True)
                      (mlp_act): GELU(approximate='none')
                      (mlp_down): Linear(in_features=32768, out_features=8192, bias=True)
                    )
                    (resid_attn_dropout): Dropout(p=0.0, inplace=False)
                    (resid_mlp_dropout): Dropout(p=0.0, inplace=False)
                  )
                )
              )
            )
            (109): FullyShardedDataParallel(
              (_fsdp_wrapped_module): FlattenParamsWrapper(
                (_fpw_module): CheckpointWrapper(
                  (_checkpoint_wrapped_module): GPTBlock(
                    (ln_1): LayerNorm((8192,), eps=1e-05, elementwise_affine=True)
                    (causal_attn): FlashCausalAttention(
                      (mhsa): FlashMHA(
                        (Wqkv): Linear(in_features=8192, out_features=24576, bias=True)
                        (inner_attn): FlashAttention()
                        (out_proj): Linear(in_features=8192, out_features=8192, bias=True)
                      )
                    )
                    (ln_2): LayerNorm((8192,), eps=1e-05, elementwise_affine=True)
                    (mlp): GPTMLP(
                      (mlp_up): Linear(in_features=8192, out_features=32768, bias=True)
                      (mlp_act): GELU(approximate='none')
                      (mlp_down): Linear(in_features=32768, out_features=8192, bias=True)
                    )
                    (resid_attn_dropout): Dropout(p=0.0, inplace=False)
                    (resid_mlp_dropout): Dropout(p=0.0, inplace=False)
                  )
                )
              )
            )
            (110): FullyShardedDataParallel(
              (_fsdp_wrapped_module): FlattenParamsWrapper(
                (_fpw_module): CheckpointWrapper(
                  (_checkpoint_wrapped_module): GPTBlock(
                    (ln_1): LayerNorm((8192,), eps=1e-05, elementwise_affine=True)
                    (causal_attn): FlashCausalAttention(
                      (mhsa): FlashMHA(
                        (Wqkv): Linear(in_features=8192, out_features=24576, bias=True)
                        (inner_attn): FlashAttention()
                        (out_proj): Linear(in_features=8192, out_features=8192, bias=True)
                      )
                    )
                    (ln_2): LayerNorm((8192,), eps=1e-05, elementwise_affine=True)
                    (mlp): GPTMLP(
                      (mlp_up): Linear(in_features=8192, out_features=32768, bias=True)
                      (mlp_act): GELU(approximate='none')
                      (mlp_down): Linear(in_features=32768, out_features=8192, bias=True)
                    )
                    (resid_attn_dropout): Dropout(p=0.0, inplace=False)
                    (resid_mlp_dropout): Dropout(p=0.0, inplace=False)
                  )
                )
              )
            )
            (111): FullyShardedDataParallel(
              (_fsdp_wrapped_module): FlattenParamsWrapper(
                (_fpw_module): CheckpointWrapper(
                  (_checkpoint_wrapped_module): GPTBlock(
                    (ln_1): LayerNorm((8192,), eps=1e-05, elementwise_affine=True)
                    (causal_attn): FlashCausalAttention(
                      (mhsa): FlashMHA(
                        (Wqkv): Linear(in_features=8192, out_features=24576, bias=True)
                        (inner_attn): FlashAttention()
                        (out_proj): Linear(in_features=8192, out_features=8192, bias=True)
                      )
                    )
                    (ln_2): LayerNorm((8192,), eps=1e-05, elementwise_affine=True)
                    (mlp): GPTMLP(
                      (mlp_up): Linear(in_features=8192, out_features=32768, bias=True)
                      (mlp_act): GELU(approximate='none')
                      (mlp_down): Linear(in_features=32768, out_features=8192, bias=True)
                    )
                    (resid_attn_dropout): Dropout(p=0.0, inplace=False)
                    (resid_mlp_dropout): Dropout(p=0.0, inplace=False)
                  )
                )
              )
            )
            (112): FullyShardedDataParallel(
              (_fsdp_wrapped_module): FlattenParamsWrapper(
                (_fpw_module): CheckpointWrapper(
                  (_checkpoint_wrapped_module): GPTBlock(
                    (ln_1): LayerNorm((8192,), eps=1e-05, elementwise_affine=True)
                    (causal_attn): FlashCausalAttention(
                      (mhsa): FlashMHA(
                        (Wqkv): Linear(in_features=8192, out_features=24576, bias=True)
                        (inner_attn): FlashAttention()
                        (out_proj): Linear(in_features=8192, out_features=8192, bias=True)
                      )
                    )
                    (ln_2): LayerNorm((8192,), eps=1e-05, elementwise_affine=True)
                    (mlp): GPTMLP(
                      (mlp_up): Linear(in_features=8192, out_features=32768, bias=True)
                      (mlp_act): GELU(approximate='none')
                      (mlp_down): Linear(in_features=32768, out_features=8192, bias=True)
                    )
                    (resid_attn_dropout): Dropout(p=0.0, inplace=False)
                    (resid_mlp_dropout): Dropout(p=0.0, inplace=False)
                  )
                )
              )
            )
            (113): FullyShardedDataParallel(
              (_fsdp_wrapped_module): FlattenParamsWrapper(
                (_fpw_module): CheckpointWrapper(
                  (_checkpoint_wrapped_module): GPTBlock(
                    (ln_1): LayerNorm((8192,), eps=1e-05, elementwise_affine=True)
                    (causal_attn): FlashCausalAttention(
                      (mhsa): FlashMHA(
                        (Wqkv): Linear(in_features=8192, out_features=24576, bias=True)
                        (inner_attn): FlashAttention()
                        (out_proj): Linear(in_features=8192, out_features=8192, bias=True)
                      )
                    )
                    (ln_2): LayerNorm((8192,), eps=1e-05, elementwise_affine=True)
                    (mlp): GPTMLP(
                      (mlp_up): Linear(in_features=8192, out_features=32768, bias=True)
                      (mlp_act): GELU(approximate='none')
                      (mlp_down): Linear(in_features=32768, out_features=8192, bias=True)
                    )
                    (resid_attn_dropout): Dropout(p=0.0, inplace=False)
                    (resid_mlp_dropout): Dropout(p=0.0, inplace=False)
                  )
                )
              )
            )
            (114): FullyShardedDataParallel(
              (_fsdp_wrapped_module): FlattenParamsWrapper(
                (_fpw_module): CheckpointWrapper(
                  (_checkpoint_wrapped_module): GPTBlock(
                    (ln_1): LayerNorm((8192,), eps=1e-05, elementwise_affine=True)
                    (causal_attn): FlashCausalAttention(
                      (mhsa): FlashMHA(
                        (Wqkv): Linear(in_features=8192, out_features=24576, bias=True)
                        (inner_attn): FlashAttention()
                        (out_proj): Linear(in_features=8192, out_features=8192, bias=True)
                      )
                    )
                    (ln_2): LayerNorm((8192,), eps=1e-05, elementwise_affine=True)
                    (mlp): GPTMLP(
                      (mlp_up): Linear(in_features=8192, out_features=32768, bias=True)
                      (mlp_act): GELU(approximate='none')
                      (mlp_down): Linear(in_features=32768, out_features=8192, bias=True)
                    )
                    (resid_attn_dropout): Dropout(p=0.0, inplace=False)
                    (resid_mlp_dropout): Dropout(p=0.0, inplace=False)
                  )
                )
              )
            )
            (115): FullyShardedDataParallel(
              (_fsdp_wrapped_module): FlattenParamsWrapper(
                (_fpw_module): CheckpointWrapper(
                  (_checkpoint_wrapped_module): GPTBlock(
                    (ln_1): LayerNorm((8192,), eps=1e-05, elementwise_affine=True)
                    (causal_attn): FlashCausalAttention(
                      (mhsa): FlashMHA(
                        (Wqkv): Linear(in_features=8192, out_features=24576, bias=True)
                        (inner_attn): FlashAttention()
                        (out_proj): Linear(in_features=8192, out_features=8192, bias=True)
                      )
                    )
                    (ln_2): LayerNorm((8192,), eps=1e-05, elementwise_affine=True)
                    (mlp): GPTMLP(
                      (mlp_up): Linear(in_features=8192, out_features=32768, bias=True)
                      (mlp_act): GELU(approximate='none')
                      (mlp_down): Linear(in_features=32768, out_features=8192, bias=True)
                    )
                    (resid_attn_dropout): Dropout(p=0.0, inplace=False)
                    (resid_mlp_dropout): Dropout(p=0.0, inplace=False)
                  )
                )
              )
            )
            (116): FullyShardedDataParallel(
              (_fsdp_wrapped_module): FlattenParamsWrapper(
                (_fpw_module): CheckpointWrapper(
                  (_checkpoint_wrapped_module): GPTBlock(
                    (ln_1): LayerNorm((8192,), eps=1e-05, elementwise_affine=True)
                    (causal_attn): FlashCausalAttention(
                      (mhsa): FlashMHA(
                        (Wqkv): Linear(in_features=8192, out_features=24576, bias=True)
                        (inner_attn): FlashAttention()
                        (out_proj): Linear(in_features=8192, out_features=8192, bias=True)
                      )
                    )
                    (ln_2): LayerNorm((8192,), eps=1e-05, elementwise_affine=True)
                    (mlp): GPTMLP(
                      (mlp_up): Linear(in_features=8192, out_features=32768, bias=True)
                      (mlp_act): GELU(approximate='none')
                      (mlp_down): Linear(in_features=32768, out_features=8192, bias=True)
                    )
                    (resid_attn_dropout): Dropout(p=0.0, inplace=False)
                    (resid_mlp_dropout): Dropout(p=0.0, inplace=False)
                  )
                )
              )
            )
            (117): FullyShardedDataParallel(
              (_fsdp_wrapped_module): FlattenParamsWrapper(
                (_fpw_module): CheckpointWrapper(
                  (_checkpoint_wrapped_module): GPTBlock(
                    (ln_1): LayerNorm((8192,), eps=1e-05, elementwise_affine=True)
                    (causal_attn): FlashCausalAttention(
                      (mhsa): FlashMHA(
                        (Wqkv): Linear(in_features=8192, out_features=24576, bias=True)
                        (inner_attn): FlashAttention()
                        (out_proj): Linear(in_features=8192, out_features=8192, bias=True)
                      )
                    )
                    (ln_2): LayerNorm((8192,), eps=1e-05, elementwise_affine=True)
                    (mlp): GPTMLP(
                      (mlp_up): Linear(in_features=8192, out_features=32768, bias=True)
                      (mlp_act): GELU(approximate='none')
                      (mlp_down): Linear(in_features=32768, out_features=8192, bias=True)
                    )
                    (resid_attn_dropout): Dropout(p=0.0, inplace=False)
                    (resid_mlp_dropout): Dropout(p=0.0, inplace=False)
                  )
                )
              )
            )
            (118): FullyShardedDataParallel(
              (_fsdp_wrapped_module): FlattenParamsWrapper(
                (_fpw_module): CheckpointWrapper(
                  (_checkpoint_wrapped_module): GPTBlock(
                    (ln_1): LayerNorm((8192,), eps=1e-05, elementwise_affine=True)
                    (causal_attn): FlashCausalAttention(
                      (mhsa): FlashMHA(
                        (Wqkv): Linear(in_features=8192, out_features=24576, bias=True)
                        (inner_attn): FlashAttention()
                        (out_proj): Linear(in_features=8192, out_features=8192, bias=True)
                      )
                    )
…
                      (mlp_up): Linear(in_features=8192, out_features=32768, bias=True)
                      (mlp_act): GELU(approximate='none')
                      (mlp_down): Linear(in_features=32768, out_features=8192, bias=True)
                    )
                    (resid_attn_dropout): Dropout(p=0.0, inplace=False)
                    (resid_mlp_dropout): Dropout(p=0.0, inplace=False)
                  )
                )
              )
            )
            (211): FullyShardedDataParallel(
              (_fsdp_wrapped_module): FlattenParamsWrapper(
                (_fpw_module): CheckpointWrapper(
                  (_checkpoint_wrapped_module): GPTBlock(
                    (ln_1): LayerNorm((8192,), eps=1e-05, elementwise_affine=True)
                    (causal_attn): FlashCausalAttention(
                      (mhsa): FlashMHA(
                        (Wqkv): Linear(in_features=8192, out_features=24576, bias=True)
                        (inner_attn): FlashAttention()
                        (out_proj): Linear(in_features=8192, out_features=8192, bias=True)
                      )
                    )
                    (ln_2): LayerNorm((8192,), eps=1e-05, elementwise_affine=True)
                    (mlp): GPTMLP(
                      (mlp_up): Linear(in_features=8192, out_features=32768, bias=True)
                      (mlp_act): GELU(approximate='none')
                      (mlp_down): Linear(in_features=32768, out_features=8192, bias=True)
                    )
                    (resid_attn_dropout): Dropout(p=0.0, inplace=False)
                    (resid_mlp_dropout): Dropout(p=0.0, inplace=False)
                  )
                )
              )
            )
            (212): FullyShardedDataParallel(
              (_fsdp_wrapped_module): FlattenParamsWrapper(
                (_fpw_module): CheckpointWrapper(
                  (_checkpoint_wrapped_module): GPTBlock(
                    (ln_1): LayerNorm((8192,), eps=1e-05, elementwise_affine=True)
                    (causal_attn): FlashCausalAttention(
                      (mhsa): FlashMHA(
                        (Wqkv): Linear(in_features=8192, out_features=24576, bias=True)
                        (inner_attn): FlashAttention()
                        (out_proj): Linear(in_features=8192, out_features=8192, bias=True)
                      )
                    )
                    (ln_2): LayerNorm((8192,), eps=1e-05, elementwise_affine=True)
                    (mlp): GPTMLP(
                      (mlp_up): Linear(in_features=8192, out_features=32768, bias=True)
                      (mlp_act): GELU(approximate='none')
                      (mlp_down): Linear(in_features=32768, out_features=8192, bias=True)
                    )
                    (resid_attn_dropout): Dropout(p=0.0, inplace=False)
                    (resid_mlp_dropout): Dropout(p=0.0, inplace=False)
                  )
                )
              )
            )
            (213): FullyShardedDataParallel(
              (_fsdp_wrapped_module): FlattenParamsWrapper(
                (_fpw_module): CheckpointWrapper(
                  (_checkpoint_wrapped_module): GPTBlock(
                    (ln_1): LayerNorm((8192,), eps=1e-05, elementwise_affine=True)
                    (causal_attn): FlashCausalAttention(
                      (mhsa): FlashMHA(
                        (Wqkv): Linear(in_features=8192, out_features=24576, bias=True)
                        (inner_attn): FlashAttention()
                        (out_proj): Linear(in_features=8192, out_features=8192, bias=True)
                      )
                    )
                    (ln_2): LayerNorm((8192,), eps=1e-05, elementwise_affine=True)
                    (mlp): GPTMLP(
                      (mlp_up): Linear(in_features=8192, out_features=32768, bias=True)
                      (mlp_act): GELU(approximate='none')
                      (mlp_down): Linear(in_features=32768, out_features=8192, bias=True)
                    )
                    (resid_attn_dropout): Dropout(p=0.0, inplace=False)
                    (resid_mlp_dropout): Dropout(p=0.0, inplace=False)
                  )
                )
              )
            )
            (214): FullyShardedDataParallel(
              (_fsdp_wrapped_module): FlattenParamsWrapper(
                (_fpw_module): CheckpointWrapper(
                  (_checkpoint_wrapped_module): GPTBlock(
                    (ln_1): LayerNorm((8192,), eps=1e-05, elementwise_affine=True)
                    (causal_attn): FlashCausalAttention(
                      (mhsa): FlashMHA(
                        (Wqkv): Linear(in_features=8192, out_features=24576, bias=True)
                        (inner_attn): FlashAttention()
                        (out_proj): Linear(in_features=8192, out_features=8192, bias=True)
                      )
                    )
                    (ln_2): LayerNorm((8192,), eps=1e-05, elementwise_affine=True)
                    (mlp): GPTMLP(
                      (mlp_up): Linear(in_features=8192, out_features=32768, bias=True)
                      (mlp_act): GELU(approximate='none')
                      (mlp_down): Linear(in_features=32768, out_features=8192, bias=True)
                    )
                    (resid_attn_dropout): Dropout(p=0.0, inplace=False)
                    (resid_mlp_dropout): Dropout(p=0.0, inplace=False)
                  )
                )
              )
            )
            (215): FullyShardedDataParallel(
              (_fsdp_wrapped_module): FlattenParamsWrapper(
                (_fpw_module): CheckpointWrapper(
                  (_checkpoint_wrapped_module): GPTBlock(
                    (ln_1): LayerNorm((8192,), eps=1e-05, elementwise_affine=True)
                    (causal_attn): FlashCausalAttention(
                      (mhsa): FlashMHA(
                        (Wqkv): Linear(in_features=8192, out_features=24576, bias=True)
                        (inner_attn): FlashAttention()
                        (out_proj): Linear(in_features=8192, out_features=8192, bias=True)
                      )
                    )
                    (ln_2): LayerNorm((8192,), eps=1e-05, elementwise_affine=True)
                    (mlp): GPTMLP(
                      (mlp_up): Linear(in_features=8192, out_features=32768, bias=True)
                      (mlp_act): GELU(approximate='none')
                      (mlp_down): Linear(in_features=32768, out_features=8192, bias=True)
                    )
                    (resid_attn_dropout): Dropout(p=0.0, inplace=False)
                    (resid_mlp_dropout): Dropout(p=0.0, inplace=False)
                  )
                )
              )
            )
            (216): FullyShardedDataParallel(
              (_fsdp_wrapped_module): FlattenParamsWrapper(
                (_fpw_module): CheckpointWrapper(
                  (_checkpoint_wrapped_module): GPTBlock(
                    (ln_1): LayerNorm((8192,), eps=1e-05, elementwise_affine=True)
                    (causal_attn): FlashCausalAttention(
                      (mhsa): FlashMHA(
                        (Wqkv): Linear(in_features=8192, out_features=24576, bias=True)
                        (inner_attn): FlashAttention()
                        (out_proj): Linear(in_features=8192, out_features=8192, bias=True)
                      )
                    )
                    (ln_2): LayerNorm((8192,), eps=1e-05, elementwise_affine=True)
                    (mlp): GPTMLP(
                      (mlp_up): Linear(in_features=8192, out_features=32768, bias=True)
                      (mlp_act): GELU(approximate='none')
                      (mlp_down): Linear(in_features=32768, out_features=8192, bias=True)
                    )
                    (resid_attn_dropout): Dropout(p=0.0, inplace=False)
                    (resid_mlp_dropout): Dropout(p=0.0, inplace=False)
                  )
                )
              )
            )
            (217): FullyShardedDataParallel(
              (_fsdp_wrapped_module): FlattenParamsWrapper(
                (_fpw_module): CheckpointWrapper(
                  (_checkpoint_wrapped_module): GPTBlock(
                    (ln_1): LayerNorm((8192,), eps=1e-05, elementwise_affine=True)
                    (causal_attn): FlashCausalAttention(
                      (mhsa): FlashMHA(
                        (Wqkv): Linear(in_features=8192, out_features=24576, bias=True)
                        (inner_attn): FlashAttention()
                        (out_proj): Linear(in_features=8192, out_features=8192, bias=True)
                      )
                    )
                    (ln_2): LayerNorm((8192,), eps=1e-05, elementwise_affine=True)
                    (mlp): GPTMLP(
                      (mlp_up): Linear(in_features=8192, out_features=32768, bias=True)
                      (mlp_act): GELU(approximate='none')
                      (mlp_down): Linear(in_features=32768, out_features=8192, bias=True)
                    )
                    (resid_attn_dropout): Dropout(p=0.0, inplace=False)
                    (resid_mlp_dropout): Dropout(p=0.0, inplace=False)
                  )
                )
              )
            )
            (218): FullyShardedDataParallel(
              (_fsdp_wrapped_module): FlattenParamsWrapper(
                (_fpw_module): CheckpointWrapper(
                  (_checkpoint_wrapped_module): GPTBlock(
                    (ln_1): LayerNorm((8192,), eps=1e-05, elementwise_affine=True)
                    (causal_attn): FlashCausalAttention(
                      (mhsa): FlashMHA(
                        (Wqkv): Linear(in_features=8192, out_features=24576, bias=True)
                        (inner_attn): FlashAttention()
                        (out_proj): Linear(in_features=8192, out_features=8192, bias=True)
                      )
                    )
                    (ln_2): LayerNorm((8192,), eps=1e-05, elementwise_affine=True)
                    (mlp): GPTMLP(
                      (mlp_up): Linear(in_features=8192, out_features=32768, bias=True)
                      (mlp_act): GELU(approximate='none')
                      (mlp_down): Linear(in_features=32768, out_features=8192, bias=True)
                    )
                    (resid_attn_dropout): Dropout(p=0.0, inplace=False)
                    (resid_mlp_dropout): Dropout(p=0.0, inplace=False)
                  )
                )
              )
            )
            (219): FullyShardedDataParallel(
              (_fsdp_wrapped_module): FlattenParamsWrapper(
                (_fpw_module): CheckpointWrapper(
                  (_checkpoint_wrapped_module): GPTBlock(
                    (ln_1): LayerNorm((8192,), eps=1e-05, elementwise_affine=True)
                    (causal_attn): FlashCausalAttention(
                      (mhsa): FlashMHA(
                        (Wqkv): Linear(in_features=8192, out_features=24576, bias=True)
                        (inner_attn): FlashAttention()
                        (out_proj): Linear(in_features=8192, out_features=8192, bias=True)
                      )
                    )
                    (ln_2): LayerNorm((8192,), eps=1e-05, elementwise_affine=True)
                    (mlp): GPTMLP(
                      (mlp_up): Linear(in_features=8192, out_features=32768, bias=True)
                      (mlp_act): GELU(approximate='none')
                      (mlp_down): Linear(in_features=32768, out_features=8192, bias=True)
                    )
                    (resid_attn_dropout): Dropout(p=0.0, inplace=False)
                    (resid_mlp_dropout): Dropout(p=0.0, inplace=False)
                  )
                )
              )
            )
            (220): FullyShardedDataParallel(
              (_fsdp_wrapped_module): FlattenParamsWrapper(
                (_fpw_module): CheckpointWrapper(
                  (_checkpoint_wrapped_module): GPTBlock(
                    (ln_1): LayerNorm((8192,), eps=1e-05, elementwise_affine=True)
                    (causal_attn): FlashCausalAttention(
                      (mhsa): FlashMHA(
                        (Wqkv): Linear(in_features=8192, out_features=24576, bias=True)
                        (inner_attn): FlashAttention()
                        (out_proj): Linear(in_features=8192, out_features=8192, bias=True)
                      )
                    )
                    (ln_2): LayerNorm((8192,), eps=1e-05, elementwise_affine=True)
                    (mlp): GPTMLP(
                      (mlp_up): Linear(in_features=8192, out_features=32768, bias=True)
                      (mlp_act): GELU(approximate='none')
                      (mlp_down): Linear(in_features=32768, out_features=8192, bias=True)
                    )
                    (resid_attn_dropout): Dropout(p=0.0, inplace=False)
                    (resid_mlp_dropout): Dropout(p=0.0, inplace=False)
                  )
                )
              )
            )
            (221): FullyShardedDataParallel(
              (_fsdp_wrapped_module): FlattenParamsWrapper(
                (_fpw_module): CheckpointWrapper(
                  (_checkpoint_wrapped_module): GPTBlock(
                    (ln_1): LayerNorm((8192,), eps=1e-05, elementwise_affine=True)
                    (causal_attn): FlashCausalAttention(
                      (mhsa): FlashMHA(
                        (Wqkv): Linear(in_features=8192, out_features=24576, bias=True)
                        (inner_attn): FlashAttention()
                        (out_proj): Linear(in_features=8192, out_features=8192, bias=True)
                      )
                    )
                    (ln_2): LayerNorm((8192,), eps=1e-05, elementwise_affine=True)
                    (mlp): GPTMLP(
                      (mlp_up): Linear(in_features=8192, out_features=32768, bias=True)
                      (mlp_act): GELU(approximate='none')
                      (mlp_down): Linear(in_features=32768, out_features=8192, bias=True)
                    )
                    (resid_attn_dropout): Dropout(p=0.0, inplace=False)
                    (resid_mlp_dropout): Dropout(p=0.0, inplace=False)
                  )
                )
              )
            )
            (222): FullyShardedDataParallel(
              (_fsdp_wrapped_module): FlattenParamsWrapper(
                (_fpw_module): CheckpointWrapper(
                  (_checkpoint_wrapped_module): GPTBlock(
                    (ln_1): LayerNorm((8192,), eps=1e-05, elementwise_affine=True)
                    (causal_attn): FlashCausalAttention(
                      (mhsa): FlashMHA(
                        (Wqkv): Linear(in_features=8192, out_features=24576, bias=True)
                        (inner_attn): FlashAttention()
                        (out_proj): Linear(in_features=8192, out_features=8192, bias=True)
                      )
                    )
                    (ln_2): LayerNorm((8192,), eps=1e-05, elementwise_affine=True)
                    (mlp): GPTMLP(
                      (mlp_up): Linear(in_features=8192, out_features=32768, bias=True)
                      (mlp_act): GELU(approximate='none')
                      (mlp_down): Linear(in_features=32768, out_features=8192, bias=True)
                    )
                    (resid_attn_dropout): Dropout(p=0.0, inplace=False)
                    (resid_mlp_dropout): Dropout(p=0.0, inplace=False)
                  )
                )
              )
            )
            (223): FullyShardedDataParallel(
              (_fsdp_wrapped_module): FlattenParamsWrapper(
                (_fpw_module): CheckpointWrapper(
                  (_checkpoint_wrapped_module): GPTBlock(
                    (ln_1): LayerNorm((8192,), eps=1e-05, elementwise_affine=True)
                    (causal_attn): FlashCausalAttention(
                      (mhsa): FlashMHA(
                        (Wqkv): Linear(in_features=8192, out_features=24576, bias=True)
                        (inner_attn): FlashAttention()
                        (out_proj): Linear(in_features=8192, out_features=8192, bias=True)
                      )
                    )
                    (ln_2): LayerNorm((8192,), eps=1e-05, elementwise_affine=True)
                    (mlp): GPTMLP(
                      (mlp_up): Linear(in_features=8192, out_features=32768, bias=True)
                      (mlp_act): GELU(approximate='none')
                      (mlp_down): Linear(in_features=32768, out_features=8192, bias=True)
                    )
                    (resid_attn_dropout): Dropout(p=0.0, inplace=False)
                    (resid_mlp_dropout): Dropout(p=0.0, inplace=False)
                  )
                )
              )
            )
            (224): FullyShardedDataParallel(
              (_fsdp_wrapped_module): FlattenParamsWrapper(
                (_fpw_module): CheckpointWrapper(
                  (_checkpoint_wrapped_module): GPTBlock(
                    (ln_1): LayerNorm((8192,), eps=1e-05, elementwise_affine=True)
                    (causal_attn): FlashCausalAttention(
                      (mhsa): FlashMHA(
                        (Wqkv): Linear(in_features=8192, out_features=24576, bias=True)
                        (inner_attn): FlashAttention()
                        (out_proj): Linear(in_features=8192, out_features=8192, bias=True)
                      )
                    )
                    (ln_2): LayerNorm((8192,), eps=1e-05, elementwise_affine=True)
                    (mlp): GPTMLP(
                      (mlp_up): Linear(in_features=8192, out_features=32768, bias=True)
                      (mlp_act): GELU(approximate='none')
                      (mlp_down): Linear(in_features=32768, out_features=8192, bias=True)
                    )
                    (resid_attn_dropout): Dropout(p=0.0, inplace=False)
                    (resid_mlp_dropout): Dropout(p=0.0, inplace=False)
                  )
                )
              )
            )
            (225): FullyShardedDataParallel(
              (_fsdp_wrapped_module): FlattenParamsWrapper(
                (_fpw_module): CheckpointWrapper(
                  (_checkpoint_wrapped_module): GPTBlock(
                    (ln_1): LayerNorm((8192,), eps=1e-05, elementwise_affine=True)
                    (causal_attn): FlashCausalAttention(
                      (mhsa): FlashMHA(
                        (Wqkv): Linear(in_features=8192, out_features=24576, bias=True)
                        (inner_attn): FlashAttention()
                        (out_proj): Linear(in_features=8192, out_features=8192, bias=True)
                      )
                    )
                    (ln_2): LayerNorm((8192,), eps=1e-05, elementwise_affine=True)
                    (mlp): GPTMLP(
                      (mlp_up): Linear(in_features=8192, out_features=32768, bias=True)
                      (mlp_act): GELU(approximate='none')
                      (mlp_down): Linear(in_features=32768, out_features=8192, bias=True)
                    )
                    (resid_attn_dropout): Dropout(p=0.0, inplace=False)
                    (resid_mlp_dropout): Dropout(p=0.0, inplace=False)
                  )
                )
              )
            )
            (226): FullyShardedDataParallel(
              (_fsdp_wrapped_module): FlattenParamsWrapper(
                (_fpw_module): CheckpointWrapper(
                  (_checkpoint_wrapped_module): GPTBlock(
                    (ln_1): LayerNorm((8192,), eps=1e-05, elementwise_affine=True)
                    (causal_attn): FlashCausalAttention(
                      (mhsa): FlashMHA(
                        (Wqkv): Linear(in_features=8192, out_features=24576, bias=True)
                        (inner_attn): FlashAttention()
                        (out_proj): Linear(in_features=8192, out_features=8192, bias=True)
                      )
                    )
                    (ln_2): LayerNorm((8192,), eps=1e-05, elementwise_affine=True)
                    (mlp): GPTMLP(
                      (mlp_up): Linear(in_features=8192, out_features=32768, bias=True)
                      (mlp_act): GELU(approximate='none')
                      (mlp_down): Linear(in_features=32768, out_features=8192, bias=True)
                    )
                    (resid_attn_dropout): Dropout(p=0.0, inplace=False)
                    (resid_mlp_dropout): Dropout(p=0.0, inplace=False)
                  )
                )
              )
            )
            (227): FullyShardedDataParallel(
              (_fsdp_wrapped_module): FlattenParamsWrapper(
                (_fpw_module): CheckpointWrapper(
                  (_checkpoint_wrapped_module): GPTBlock(
                    (ln_1): LayerNorm((8192,), eps=1e-05, elementwise_affine=True)
                    (causal_attn): FlashCausalAttention(
                      (mhsa): FlashMHA(
                        (Wqkv): Linear(in_features=8192, out_features=24576, bias=True)
                        (inner_attn): FlashAttention()
                        (out_proj): Linear(in_features=8192, out_features=8192, bias=True)
                      )
                    )
                    (ln_2): LayerNorm((8192,), eps=1e-05, elementwise_affine=True)
                    (mlp): GPTMLP(
                      (mlp_up): Linear(in_features=8192, out_features=32768, bias=True)
                      (mlp_act): GELU(approximate='none')
                      (mlp_down): Linear(in_features=32768, out_features=8192, bias=True)
                    )
                    (resid_attn_dropout): Dropout(p=0.0, inplace=False)
                    (resid_mlp_dropout): Dropout(p=0.0, inplace=False)
                  )
                )
              )
            )
            (228): FullyShardedDataParallel(
              (_fsdp_wrapped_module): FlattenParamsWrapper(
                (_fpw_module): CheckpointWrapper(
                  (_checkpoint_wrapped_module): GPTBlock(
                    (ln_1): LayerNorm((8192,), eps=1e-05, elementwise_affine=True)
                    (causal_attn): FlashCausalAttention(
                      (mhsa): FlashMHA(
                        (Wqkv): Linear(in_features=8192, out_features=24576, bias=True)
                        (inner_attn): FlashAttention()
                        (out_proj): Linear(in_features=8192, out_features=8192, bias=True)
                      )
                    )
                    (ln_2): LayerNorm((8192,), eps=1e-05, elementwise_affine=True)
                    (mlp): GPTMLP(
                      (mlp_up): Linear(in_features=8192, out_features=32768, bias=True)
                      (mlp_act): GELU(approximate='none')
                      (mlp_down): Linear(in_features=32768, out_features=8192, bias=True)
                    )
                    (resid_attn_dropout): Dropout(p=0.0, inplace=False)
                    (resid_mlp_dropout): Dropout(p=0.0, inplace=False)
                  )
                )
              )
            )
            (229): FullyShardedDataParallel(
              (_fsdp_wrapped_module): FlattenParamsWrapper(
                (_fpw_module): CheckpointWrapper(
                  (_checkpoint_wrapped_module): GPTBlock(
                    (ln_1): LayerNorm((8192,), eps=1e-05, elementwise_affine=True)
                    (causal_attn): FlashCausalAttention(
                      (mhsa): FlashMHA(
                        (Wqkv): Linear(in_features=8192, out_features=24576, bias=True)
                        (inner_attn): FlashAttention()
                        (out_proj): Linear(in_features=8192, out_features=8192, bias=True)
                      )
                    )
                    (ln_2): LayerNorm((8192,), eps=1e-05, elementwise_affine=True)
                    (mlp): GPTMLP(
                      (mlp_up): Linear(in_features=8192, out_features=32768, bias=True)
                      (mlp_act): GELU(approximate='none')
                      (mlp_down): Linear(in_features=32768, out_features=8192, bias=True)
                    )
                    (resid_attn_dropout): Dropout(p=0.0, inplace=False)
                    (resid_mlp_dropout): Dropout(p=0.0, inplace=False)
                  )
                )
              )
            )
            (230): FullyShardedDataParallel(
              (_fsdp_wrapped_module): FlattenParamsWrapper(
                (_fpw_module): CheckpointWrapper(
                  (_checkpoint_wrapped_module): GPTBlock(
                    (ln_1): LayerNorm((8192,), eps=1e-05, elementwise_affine=True)
                    (causal_attn): FlashCausalAttention(
                      (mhsa): FlashMHA(
                        (Wqkv): Linear(in_features=8192, out_features=24576, bias=True)
                        (inner_attn): FlashAttention()
                        (out_proj): Linear(in_features=8192, out_features=8192, bias=True)
                      )
                    )
                    (ln_2): LayerNorm((8192,), eps=1e-05, elementwise_affine=True)
                    (mlp): GPTMLP(
                      (mlp_up): Linear(in_features=8192, out_features=32768, bias=True)
                      (mlp_act): GELU(approximate='none')
                      (mlp_down): Linear(in_features=32768, out_features=8192, bias=True)
                    )
                    (resid_attn_dropout): Dropout(p=0.0, inplace=False)
                    (resid_mlp_dropout): Dropout(p=0.0, inplace=False)
                  )
                )
              )
            )
            (231): FullyShardedDataParallel(
              (_fsdp_wrapped_module): FlattenParamsWrapper(
                (_fpw_module): CheckpointWrapper(
                  (_checkpoint_wrapped_module): GPTBlock(
                    (ln_1): LayerNorm((8192,), eps=1e-05, elementwise_affine=True)
                    (causal_attn): FlashCausalAttention(
                      (mhsa): FlashMHA(
                        (Wqkv): Linear(in_features=8192, out_features=24576, bias=True)
                        (inner_attn): FlashAttention()
                        (out_proj): Linear(in_features=8192, out_features=8192, bias=True)
                      )
                    )
                    (ln_2): LayerNorm((8192,), eps=1e-05, elementwise_affine=True)
                    (mlp): GPTMLP(
                      (mlp_up): Linear(in_features=8192, out_features=32768, bias=True)
                      (mlp_act): GELU(approximate='none')
                      (mlp_down): Linear(in_features=32768, out_features=8192, bias=True)
                    )
                    (resid_attn_dropout): Dropout(p=0.0, inplace=False)
                    (resid_mlp_dropout): Dropout(p=0.0, inplace=False)
                  )
                )
              )
            )
            (232): FullyShardedDataParallel(
              (_fsdp_wrapped_module): FlattenParamsWrapper(
                (_fpw_module): CheckpointWrapper(
                  (_checkpoint_wrapped_module): GPTBlock(
                    (ln_1): LayerNorm((8192,), eps=1e-05, elementwise_affine=True)
                    (causal_attn): FlashCausalAttention(
                      (mhsa): FlashMHA(
                        (Wqkv): Linear(in_features=8192, out_features=24576, bias=True)
                        (inner_attn): FlashAttention()
                        (out_proj): Linear(in_features=8192, out_features=8192, bias=True)
                      )
                    )
                    (ln_2): LayerNorm((8192,), eps=1e-05, elementwise_affine=True)
                    (mlp): GPTMLP(
                      (mlp_up): Linear(in_features=8192, out_features=32768, bias=True)
                      (mlp_act): GELU(approximate='none')
                      (mlp_down): Linear(in_features=32768, out_features=8192, bias=True)
                    )
                    (resid_attn_dropout): Dropout(p=0.0, inplace=False)
                    (resid_mlp_dropout): Dropout(p=0.0, inplace=False)
                  )
                )
              )
            )
            (233): FullyShardedDataParallel(
              (_fsdp_wrapped_module): FlattenParamsWrapper(
                (_fpw_module): CheckpointWrapper(
                  (_checkpoint_wrapped_module): GPTBlock(
                    (ln_1): LayerNorm((8192,), eps=1e-05, elementwise_affine=True)
                    (causal_attn): FlashCausalAttention(
                      (mhsa): FlashMHA(
                        (Wqkv): Linear(in_features=8192, out_features=24576, bias=True)
                        (inner_attn): FlashAttention()
                        (out_proj): Linear(in_features=8192, out_features=8192, bias=True)
                      )
                    )
                    (ln_2): LayerNorm((8192,), eps=1e-05, elementwise_affine=True)
                    (mlp): GPTMLP(
                      (mlp_up): Linear(in_features=8192, out_features=32768, bias=True)
                      (mlp_act): GELU(approximate='none')
                      (mlp_down): Linear(in_features=32768, out_features=8192, bias=True)
                    )
                    (resid_attn_dropout): Dropout(p=0.0, inplace=False)
                    (resid_mlp_dropout): Dropout(p=0.0, inplace=False)
                  )
                )
              )
            )
            (234): FullyShardedDataParallel(
              (_fsdp_wrapped_module): FlattenParamsWrapper(
                (_fpw_module): CheckpointWrapper(
                  (_checkpoint_wrapped_module): GPTBlock(
                    (ln_1): LayerNorm((8192,), eps=1e-05, elementwise_affine=True)
                    (causal_attn): FlashCausalAttention(
                      (mhsa): FlashMHA(
                        (Wqkv): Linear(in_features=8192, out_features=24576, bias=True)
                        (inner_attn): FlashAttention()
                        (out_proj): Linear(in_features=8192, out_features=8192, bias=True)
                      )
                    )
                    (ln_2): LayerNorm((8192,), eps=1e-05, elementwise_affine=True)
                    (mlp): GPTMLP(
                      (mlp_up): Linear(in_features=8192, out_features=32768, bias=True)
                      (mlp_act): GELU(approximate='none')
                      (mlp_down): Linear(in_features=32768, out_features=8192, bias=True)
                    )
                    (resid_attn_dropout): Dropout(p=0.0, inplace=False)
                    (resid_mlp_dropout): Dropout(p=0.0, inplace=False)
                  )
                )
              )
            )
            (235): FullyShardedDataParallel(
              (_fsdp_wrapped_module): FlattenParamsWrapper(
                (_fpw_module): CheckpointWrapper(
                  (_checkpoint_wrapped_module): GPTBlock(
                    (ln_1): LayerNorm((8192,), eps=1e-05, elementwise_affine=True)
                    (causal_attn): FlashCausalAttention(
                      (mhsa): FlashMHA(
                        (Wqkv): Linear(in_features=8192, out_features=24576, bias=True)
                        (inner_attn): FlashAttention()
                        (out_proj): Linear(in_features=8192, out_features=8192, bias=True)
                      )
                    )
                    (ln_2): LayerNorm((8192,), eps=1e-05, elementwise_affine=True)
                    (mlp): GPTMLP(
                      (mlp_up): Linear(in_features=8192, out_features=32768, bias=True)
                      (mlp_act): GELU(approximate='none')
                      (mlp_down): Linear(in_features=32768, out_features=8192, bias=True)
                    )
                    (resid_attn_dropout): Dropout(p=0.0, inplace=False)
                    (resid_mlp_dropout): Dropout(p=0.0, inplace=False)
                  )
                )
              )
            )
            (236): FullyShardedDataParallel(
              (_fsdp_wrapped_module): FlattenParamsWrapper(
                (_fpw_module): CheckpointWrapper(
                  (_checkpoint_wrapped_module): GPTBlock(
                    (ln_1): LayerNorm((8192,), eps=1e-05, elementwise_affine=True)
                    (causal_attn): FlashCausalAttention(
                      (mhsa): FlashMHA(
                        (Wqkv): Linear(in_features=8192, out_features=24576, bias=True)
                        (inner_attn): FlashAttention()
                        (out_proj): Linear(in_features=8192, out_features=8192, bias=True)
                      )
                    )
                    (ln_2): LayerNorm((8192,), eps=1e-05, elementwise_affine=True)
                    (mlp): GPTMLP(
                      (mlp_up): Linear(in_features=8192, out_features=32768, bias=True)
                      (mlp_act): GELU(approximate='none')
                      (mlp_down): Linear(in_features=32768, out_features=8192, bias=True)
                    )
                    (resid_attn_dropout): Dropout(p=0.0, inplace=False)
                    (resid_mlp_dropout): Dropout(p=0.0, inplace=False)
                  )
                )
              )
            )
            (237): FullyShardedDataParallel(
              (_fsdp_wrapped_module): FlattenParamsWrapper(
                (_fpw_module): CheckpointWrapper(
                  (_checkpoint_wrapped_module): GPTBlock(
                    (ln_1): LayerNorm((8192,), eps=1e-05, elementwise_affine=True)
                    (causal_attn): FlashCausalAttention(
                      (mhsa): FlashMHA(
                        (Wqkv): Linear(in_features=8192, out_features=24576, bias=True)
                        (inner_attn): FlashAttention()
                        (out_proj): Linear(in_features=8192, out_features=8192, bias=True)
                      )
                    )
                    (ln_2): LayerNorm((8192,), eps=1e-05, elementwise_affine=True)
                    (mlp): GPTMLP(
                      (mlp_up): Linear(in_features=8192, out_features=32768, bias=True)
                      (mlp_act): GELU(approximate='none')
                      (mlp_down): Linear(in_features=32768, out_features=8192, bias=True)
                    )
                    (resid_attn_dropout): Dropout(p=0.0, inplace=False)
                    (resid_mlp_dropout): Dropout(p=0.0, inplace=False)
                  )
                )
              )
            )
            (238): FullyShardedDataParallel(
              (_fsdp_wrapped_module): FlattenParamsWrapper(
                (_fpw_module): CheckpointWrapper(
                  (_checkpoint_wrapped_module): GPTBlock(
                    (ln_1): LayerNorm((8192,), eps=1e-05, elementwise_affine=True)
                    (causal_attn): FlashCausalAttention(
                      (mhsa): FlashMHA(
                        (Wqkv): Linear(in_features=8192, out_features=24576, bias=True)
                        (inner_attn): FlashAttention()
                        (out_proj): Linear(in_features=8192, out_features=8192, bias=True)
                      )
                    )
                    (ln_2): LayerNorm((8192,), eps=1e-05, elementwise_affine=True)
                    (mlp): GPTMLP(
                      (mlp_up): Linear(in_features=8192, out_features=32768, bias=True)
                      (mlp_act): GELU(approximate='none')
                      (mlp_down): Linear(in_features=32768, out_features=8192, bias=True)
                    )
                    (resid_attn_dropout): Dropout(p=0.0, inplace=False)
                    (resid_mlp_dropout): Dropout(p=0.0, inplace=False)
                  )
                )
              )
            )
            (239): FullyShardedDataParallel(
              (_fsdp_wrapped_module): FlattenParamsWrapper(
                (_fpw_module): CheckpointWrapper(
                  (_checkpoint_wrapped_module): GPTBlock(
                    (ln_1): LayerNorm((8192,), eps=1e-05, elementwise_affine=True)
                    (causal_attn): FlashCausalAttention(
                      (mhsa): FlashMHA(
                        (Wqkv): Linear(in_features=8192, out_features=24576, bias=True)
                        (inner_attn): FlashAttention()
                        (out_proj): Linear(in_features=8192, out_features=8192, bias=True)
                      )
                    )
                    (ln_2): LayerNorm((8192,), eps=1e-05, elementwise_affine=True)
                    (mlp): GPTMLP(
                      (mlp_up): Linear(in_features=8192, out_features=32768, bias=True)
                      (mlp_act): GELU(approximate='none')
                      (mlp_down): Linear(in_features=32768, out_features=8192, bias=True)
                    )
                    (resid_attn_dropout): Dropout(p=0.0, inplace=False)
                    (resid_mlp_dropout): Dropout(p=0.0, inplace=False)
                  )
                )
              )
            )
            (240): FullyShardedDataParallel(
              (_fsdp_wrapped_module): FlattenParamsWrapper(
                (_fpw_module): CheckpointWrapper(
                  (_checkpoint_wrapped_module): GPTBlock(
                    (ln_1): LayerNorm((8192,), eps=1e-05, elementwise_affine=True)
                    (causal_attn): FlashCausalAttention(
                      (mhsa): FlashMHA(
                        (Wqkv): Linear(in_features=8192, out_features=24576, bias=True)
                        (inner_attn): FlashAttention()
                        (out_proj): Linear(in_features=8192, out_features=8192, bias=True)
                      )
                    )
                    (ln_2): LayerNorm((8192,), eps=1e-05, elementwise_affine=True)
                    (mlp): GPTMLP(
                      (mlp_up): Linear(in_features=8192, out_features=32768, bias=True)
                      (mlp_act): GELU(approximate='none')
                      (mlp_down): Linear(in_features=32768, out_features=8192, bias=True)
                    )
                    (resid_attn_dropout): Dropout(p=0.0, inplace=False)
                    (resid_mlp_dropout): Dropout(p=0.0, inplace=False)
                  )
                )
              )
            )
            (241): FullyShardedDataParallel(
              (_fsdp_wrapped_module): FlattenParamsWrapper(
                (_fpw_module): CheckpointWrapper(
                  (_checkpoint_wrapped_module): GPTBlock(
                    (ln_1): LayerNorm((8192,), eps=1e-05, elementwise_affine=True)
                    (causal_attn): FlashCausalAttention(
                      (mhsa): FlashMHA(
                        (Wqkv): Linear(in_features=8192, out_features=24576, bias=True)
                        (inner_attn): FlashAttention()
                        (out_proj): Linear(in_features=8192, out_features=8192, bias=True)
                      )
                    )
                    (ln_2): LayerNorm((8192,), eps=1e-05, elementwise_affine=True)
                    (mlp): GPTMLP(
                      (mlp_up): Linear(in_features=8192, out_features=32768, bias=True)
                      (mlp_act): GELU(approximate='none')
                      (mlp_down): Linear(in_features=32768, out_features=8192, bias=True)
                    )
                    (resid_attn_dropout): Dropout(p=0.0, inplace=False)
                    (resid_mlp_dropout): Dropout(p=0.0, inplace=False)
                  )
                )
              )
            )
            (242): FullyShardedDataParallel(
              (_fsdp_wrapped_module): FlattenParamsWrapper(
                (_fpw_module): CheckpointWrapper(
                  (_checkpoint_wrapped_module): GPTBlock(
                    (ln_1): LayerNorm((8192,), eps=1e-05, elementwise_affine=True)
                    (causal_attn): FlashCausalAttention(
                      (mhsa): FlashMHA(
                        (Wqkv): Linear(in_features=8192, out_features=24576, bias=True)
                        (inner_attn): FlashAttention()
                        (out_proj): Linear(in_features=8192, out_features=8192, bias=True)
                      )
                    )
                    (ln_2): LayerNorm((8192,), eps=1e-05, elementwise_affine=True)
                    (mlp): GPTMLP(
                      (mlp_up): Linear(in_features=8192, out_features=32768, bias=True)
                      (mlp_act): GELU(approximate='none')
                      (mlp_down): Linear(in_features=32768, out_features=8192, bias=True)
                    )
                    (resid_attn_dropout): Dropout(p=0.0, inplace=False)
                    (resid_mlp_dropout): Dropout(p=0.0, inplace=False)
                  )
                )
              )
            )
            (243): FullyShardedDataParallel(
              (_fsdp_wrapped_module): FlattenParamsWrapper(
                (_fpw_module): CheckpointWrapper(
                  (_checkpoint_wrapped_module): GPTBlock(
                    (ln_1): LayerNorm((8192,), eps=1e-05, elementwise_affine=True)
                    (causal_attn): FlashCausalAttention(
                      (mhsa): FlashMHA(
                        (Wqkv): Linear(in_features=8192, out_features=24576, bias=True)
                        (inner_attn): FlashAttention()
                        (out_proj): Linear(in_features=8192, out_features=8192, bias=True)
                      )
                    )
                    (ln_2): LayerNorm((8192,), eps=1e-05, elementwise_affine=True)
                    (mlp): GPTMLP(
                      (mlp_up): Linear(in_features=8192, out_features=32768, bias=True)
                      (mlp_act): GELU(approximate='none')
                      (mlp_down): Linear(in_features=32768, out_features=8192, bias=True)
                    )
                    (resid_attn_dropout): Dropout(p=0.0, inplace=False)
                    (resid_mlp_dropout): Dropout(p=0.0, inplace=False)
                  )
                )
              )
            )
            (244): FullyShardedDataParallel(
              (_fsdp_wrapped_module): FlattenParamsWrapper(
                (_fpw_module): CheckpointWrapper(
                  (_checkpoint_wrapped_module): GPTBlock(
                    (ln_1): LayerNorm((8192,), eps=1e-05, elementwise_affine=True)
                    (causal_attn): FlashCausalAttention(
                      (mhsa): FlashMHA(
                        (Wqkv): Linear(in_features=8192, out_features=24576, bias=True)
                        (inner_attn): FlashAttention()
                        (out_proj): Linear(in_features=8192, out_features=8192, bias=True)
                      )
                    )
                    (ln_2): LayerNorm((8192,), eps=1e-05, elementwise_affine=True)
                    (mlp): GPTMLP(
                      (mlp_up): Linear(in_features=8192, out_features=32768, bias=True)
                      (mlp_act): GELU(approximate='none')
                      (mlp_down): Linear(in_features=32768, out_features=8192, bias=True)
                    )
                    (resid_attn_dropout): Dropout(p=0.0, inplace=False)
                    (resid_mlp_dropout): Dropout(p=0.0, inplace=False)
                  )
                )
              )
            )
            (245): FullyShardedDataParallel(
              (_fsdp_wrapped_module): FlattenParamsWrapper(
                (_fpw_module): CheckpointWrapper(
                  (_checkpoint_wrapped_module): GPTBlock(
                    (ln_1): LayerNorm((8192,), eps=1e-05, elementwise_affine=True)
                    (causal_attn): FlashCausalAttention(
                      (mhsa): FlashMHA(
                        (Wqkv): Linear(in_features=8192, out_features=24576, bias=True)
                        (inner_attn): FlashAttention()
                        (out_proj): Linear(in_features=8192, out_features=8192, bias=True)
                      )
                    )
                    (ln_2): LayerNorm((8192,), eps=1e-05, elementwise_affine=True)
                    (mlp): GPTMLP(
                      (mlp_up): Linear(in_features=8192, out_features=32768, bias=True)
                      (mlp_act): GELU(approximate='none')
                      (mlp_down): Linear(in_features=32768, out_features=8192, bias=True)
                    )
                    (resid_attn_dropout): Dropout(p=0.0, inplace=False)
                    (resid_mlp_dropout): Dropout(p=0.0, inplace=False)
                  )
                )
              )
            )
            (246): FullyShardedDataParallel(
              (_fsdp_wrapped_module): FlattenParamsWrapper(
                (_fpw_module): CheckpointWrapper(
                  (_checkpoint_wrapped_module): GPTBlock(
                    (ln_1): LayerNorm((8192,), eps=1e-05, elementwise_affine=True)
                    (causal_attn): FlashCausalAttention(
                      (mhsa): FlashMHA(
                        (Wqkv): Linear(in_features=8192, out_features=24576, bias=True)
                        (inner_attn): FlashAttention()
                        (out_proj): Linear(in_features=8192, out_features=8192, bias=True)
                      )
                    )
                    (ln_2): LayerNorm((8192,), eps=1e-05, elementwise_affine=True)
                    (mlp): GPTMLP(
                      (mlp_up): Linear(in_features=8192, out_features=32768, bias=True)
                      (mlp_act): GELU(approximate='none')
                      (mlp_down): Linear(in_features=32768, out_features=8192, bias=True)
                    )
                    (resid_attn_dropout): Dropout(p=0.0, inplace=False)
                    (resid_mlp_dropout): Dropout(p=0.0, inplace=False)
                  )
                )
              )
            )
            (247): FullyShardedDataParallel(
              (_fsdp_wrapped_module): FlattenParamsWrapper(
                (_fpw_module): CheckpointWrapper(
                  (_checkpoint_wrapped_module): GPTBlock(
                    (ln_1): LayerNorm((8192,), eps=1e-05, elementwise_affine=True)
                    (causal_attn): FlashCausalAttention(
                      (mhsa): FlashMHA(
                        (Wqkv): Linear(in_features=8192, out_features=24576, bias=True)
                        (inner_attn): FlashAttention()
                        (out_proj): Linear(in_features=8192, out_features=8192, bias=True)
                      )
                    )
                    (ln_2): LayerNorm((8192,), eps=1e-05, elementwise_affine=True)
                    (mlp): GPTMLP(
                      (mlp_up): Linear(in_features=8192, out_features=32768, bias=True)
                      (mlp_act): GELU(approximate='none')
                      (mlp_down): Linear(in_features=32768, out_features=8192, bias=True)
                    )
                    (resid_attn_dropout): Dropout(p=0.0, inplace=False)
                    (resid_mlp_dropout): Dropout(p=0.0, inplace=False)
                  )
                )
              )
            )
            (248): FullyShardedDataParallel(
              (_fsdp_wrapped_module): FlattenParamsWrapper(
                (_fpw_module): CheckpointWrapper(
                  (_checkpoint_wrapped_module): GPTBlock(
                    (ln_1): LayerNorm((8192,), eps=1e-05, elementwise_affine=True)
                    (causal_attn): FlashCausalAttention(
                      (mhsa): FlashMHA(
                        (Wqkv): Linear(in_features=8192, out_features=24576, bias=True)
                        (inner_attn): FlashAttention()
                        (out_proj): Linear(in_features=8192, out_features=8192, bias=True)
                      )
                    )
                    (ln_2): LayerNorm((8192,), eps=1e-05, elementwise_affine=True)
                    (mlp): GPTMLP(
                      (mlp_up): Linear(in_features=8192, out_features=32768, bias=True)
                      (mlp_act): GELU(approximate='none')
                      (mlp_down): Linear(in_features=32768, out_features=8192, bias=True)
                    )
                    (resid_attn_dropout): Dropout(p=0.0, inplace=False)
                    (resid_mlp_dropout): Dropout(p=0.0, inplace=False)
                  )
                )
              )
            )
            (249): FullyShardedDataParallel(
              (_fsdp_wrapped_module): FlattenParamsWrapper(
                (_fpw_module): CheckpointWrapper(
                  (_checkpoint_wrapped_module): GPTBlock(
                    (ln_1): LayerNorm((8192,), eps=1e-05, elementwise_affine=True)
                    (causal_attn): FlashCausalAttention(
                      (mhsa): FlashMHA(
                        (Wqkv): Linear(in_features=8192, out_features=24576, bias=True)
                        (inner_attn): FlashAttention()
                        (out_proj): Linear(in_features=8192, out_features=8192, bias=True)
                      )
                    )
                    (ln_2): LayerNorm((8192,), eps=1e-05, elementwise_affine=True)
                    (mlp): GPTMLP(
                      (mlp_up): Linear(in_features=8192, out_features=32768, bias=True)
                      (mlp_act): GELU(approximate='none')
                      (mlp_down): Linear(in_features=32768, out_features=8192, bias=True)
                    )
                    (resid_attn_dropout): Dropout(p=0.0, inplace=False)
                    (resid_mlp_dropout): Dropout(p=0.0, inplace=False)
                  )
                )
              )
            )
          )
          (ln_f): LayerNorm((8192,), eps=1e-05, elementwise_affine=True)
        )
      )
    )
  )
)
FSDP: Using sharding_strategy=ShardingStrategy.FULL_SHARD
FSDP: Using cpu_offload=None
FSDP: Using mixed_precision=MixedPrecision(param_dtype=torch.float16, reduce_dtype=torch.float16, buffer_dtype=torch.float16, keep_low_precision_grads=False)
FSDP: Using backward_prefetch=BackwardPrefetch.BACKWARD_POST
FSDP: Using min_params=600000000
…
